<?xml version="1.0" ?>
<net name="torch-jit-export" version="11">
	<layers>
		<layer id="0" name="input" type="Parameter" version="opset1">
			<data shape="1,3,216,384" element_type="f32"/>
			<rt_info>
				<attribute name="fused_names" version="0" value="input"/>
				<attribute name="old_api_map_element_type" version="0" value="f16"/>
			</rt_info>
			<output>
				<port id="0" precision="FP32" names="input">
					<dim>1</dim>
					<dim>3</dim>
					<dim>216</dim>
					<dim>384</dim>
				</port>
			</output>
		</layer>
		<layer id="1" name="Constant_1968_compressed" type="Const" version="opset1">
			<data element_type="f16" shape="1, 3, 1, 1" offset="0" size="6"/>
			<output>
				<port id="0" precision="FP16">
					<dim>1</dim>
					<dim>3</dim>
					<dim>1</dim>
					<dim>1</dim>
				</port>
			</output>
		</layer>
		<layer id="2" name="Constant_1968" type="Convert" version="opset1">
			<data destination_type="f32"/>
			<rt_info>
				<attribute name="decompression" version="0"/>
				<attribute name="fused_names" version="0" value="Constant_1968"/>
			</rt_info>
			<input>
				<port id="0" precision="FP16">
					<dim>1</dim>
					<dim>3</dim>
					<dim>1</dim>
					<dim>1</dim>
				</port>
			</input>
			<output>
				<port id="1" precision="FP32">
					<dim>1</dim>
					<dim>3</dim>
					<dim>1</dim>
					<dim>1</dim>
				</port>
			</output>
		</layer>
		<layer id="3" name="Subtract_1969" type="Subtract" version="opset1">
			<data auto_broadcast="numpy"/>
			<rt_info>
				<attribute name="fused_names" version="0" value="Subtract_1969"/>
				<attribute name="preprocessing" version="0"/>
			</rt_info>
			<input>
				<port id="0" precision="FP32">
					<dim>1</dim>
					<dim>3</dim>
					<dim>216</dim>
					<dim>384</dim>
				</port>
				<port id="1" precision="FP32">
					<dim>1</dim>
					<dim>3</dim>
					<dim>1</dim>
					<dim>1</dim>
				</port>
			</input>
			<output>
				<port id="2" precision="FP32">
					<dim>1</dim>
					<dim>3</dim>
					<dim>216</dim>
					<dim>384</dim>
				</port>
			</output>
		</layer>
		<layer id="4" name="Constant_4586_compressed" type="Const" version="opset1">
			<data element_type="f16" shape="64, 3, 7, 7" offset="6" size="18816"/>
			<output>
				<port id="0" precision="FP16">
					<dim>64</dim>
					<dim>3</dim>
					<dim>7</dim>
					<dim>7</dim>
				</port>
			</output>
		</layer>
		<layer id="5" name="Constant_4586" type="Convert" version="opset1">
			<data destination_type="f32"/>
			<rt_info>
				<attribute name="decompression" version="0"/>
				<attribute name="fused_names" version="0" value="Constant_1970, Convolution_83, Divide_1971, onnx::Conv_368"/>
				<attribute name="preprocessing" version="0"/>
			</rt_info>
			<input>
				<port id="0" precision="FP16">
					<dim>64</dim>
					<dim>3</dim>
					<dim>7</dim>
					<dim>7</dim>
				</port>
			</input>
			<output>
				<port id="1" precision="FP32">
					<dim>64</dim>
					<dim>3</dim>
					<dim>7</dim>
					<dim>7</dim>
				</port>
			</output>
		</layer>
		<layer id="6" name="Convolution_83" type="Convolution" version="opset1">
			<data strides="2, 2" dilations="1, 1" pads_begin="3, 3" pads_end="3, 3" auto_pad="explicit"/>
			<rt_info>
				<attribute name="fused_names" version="0" value="Constant_1970, Convolution_83, Divide_1971, onnx::Conv_368"/>
				<attribute name="preprocessing" version="0"/>
			</rt_info>
			<input>
				<port id="0" precision="FP32">
					<dim>1</dim>
					<dim>3</dim>
					<dim>216</dim>
					<dim>384</dim>
				</port>
				<port id="1" precision="FP32">
					<dim>64</dim>
					<dim>3</dim>
					<dim>7</dim>
					<dim>7</dim>
				</port>
			</input>
			<output>
				<port id="2" precision="FP32">
					<dim>1</dim>
					<dim>64</dim>
					<dim>108</dim>
					<dim>192</dim>
				</port>
			</output>
		</layer>
		<layer id="7" name="Reshape_103_compressed" type="Const" version="opset1">
			<data element_type="f16" shape="1, 64, 1, 1" offset="18822" size="128"/>
			<output>
				<port id="0" precision="FP16">
					<dim>1</dim>
					<dim>64</dim>
					<dim>1</dim>
					<dim>1</dim>
				</port>
			</output>
		</layer>
		<layer id="8" name="Reshape_103" type="Convert" version="opset1">
			<data destination_type="f32"/>
			<rt_info>
				<attribute name="decompression" version="0"/>
			</rt_info>
			<input>
				<port id="0" precision="FP16">
					<dim>1</dim>
					<dim>64</dim>
					<dim>1</dim>
					<dim>1</dim>
				</port>
			</input>
			<output>
				<port id="1" precision="FP32">
					<dim>1</dim>
					<dim>64</dim>
					<dim>1</dim>
					<dim>1</dim>
				</port>
			</output>
		</layer>
		<layer id="9" name="input.4" type="Add" version="opset1">
			<data auto_broadcast="numpy"/>
			<rt_info>
				<attribute name="fused_names" version="0" value="Concat_102, Reshape_103, input.4"/>
			</rt_info>
			<input>
				<port id="0" precision="FP32">
					<dim>1</dim>
					<dim>64</dim>
					<dim>108</dim>
					<dim>192</dim>
				</port>
				<port id="1" precision="FP32">
					<dim>1</dim>
					<dim>64</dim>
					<dim>1</dim>
					<dim>1</dim>
				</port>
			</input>
			<output>
				<port id="2" precision="FP32" names="input.4">
					<dim>1</dim>
					<dim>64</dim>
					<dim>108</dim>
					<dim>192</dim>
				</port>
			</output>
		</layer>
		<layer id="10" name="onnx::MaxPool_231" type="ReLU" version="opset1">
			<rt_info>
				<attribute name="fused_names" version="0" value="onnx::MaxPool_231"/>
			</rt_info>
			<input>
				<port id="0" precision="FP32">
					<dim>1</dim>
					<dim>64</dim>
					<dim>108</dim>
					<dim>192</dim>
				</port>
			</input>
			<output>
				<port id="1" precision="FP32" names="onnx::MaxPool_231">
					<dim>1</dim>
					<dim>64</dim>
					<dim>108</dim>
					<dim>192</dim>
				</port>
			</output>
		</layer>
		<layer id="11" name="input.8" type="MaxPool" version="opset8">
			<data strides="2, 2" dilations="1, 1" pads_begin="1, 1" pads_end="1, 1" kernel="3, 3" rounding_type="floor" auto_pad="explicit" index_element_type="i64" axis="0"/>
			<rt_info>
				<attribute name="fused_names" version="0" value="input.8"/>
			</rt_info>
			<input>
				<port id="0" precision="FP32">
					<dim>1</dim>
					<dim>64</dim>
					<dim>108</dim>
					<dim>192</dim>
				</port>
			</input>
			<output>
				<port id="1" precision="FP32" names="input.8">
					<dim>1</dim>
					<dim>64</dim>
					<dim>54</dim>
					<dim>96</dim>
				</port>
				<port id="2" precision="I64">
					<dim>1</dim>
					<dim>64</dim>
					<dim>54</dim>
					<dim>96</dim>
				</port>
			</output>
		</layer>
		<layer id="12" name="onnx::Conv_371_compressed" type="Const" version="opset1">
			<data element_type="f16" shape="64, 64, 3, 3" offset="18950" size="73728"/>
			<output>
				<port id="0" precision="FP16">
					<dim>64</dim>
					<dim>64</dim>
					<dim>3</dim>
					<dim>3</dim>
				</port>
			</output>
		</layer>
		<layer id="13" name="onnx::Conv_371" type="Convert" version="opset1">
			<data destination_type="f32"/>
			<rt_info>
				<attribute name="decompression" version="0"/>
				<attribute name="fused_names" version="0" value="onnx::Conv_371"/>
			</rt_info>
			<input>
				<port id="0" precision="FP16">
					<dim>64</dim>
					<dim>64</dim>
					<dim>3</dim>
					<dim>3</dim>
				</port>
			</input>
			<output>
				<port id="1" precision="FP32" names="onnx::Conv_371">
					<dim>64</dim>
					<dim>64</dim>
					<dim>3</dim>
					<dim>3</dim>
				</port>
			</output>
		</layer>
		<layer id="14" name="Convolution_133" type="Convolution" version="opset1">
			<data strides="1, 1" dilations="1, 1" pads_begin="1, 1" pads_end="1, 1" auto_pad="explicit"/>
			<rt_info>
				<attribute name="fused_names" version="0" value="Convolution_133"/>
			</rt_info>
			<input>
				<port id="0" precision="FP32">
					<dim>1</dim>
					<dim>64</dim>
					<dim>54</dim>
					<dim>96</dim>
				</port>
				<port id="1" precision="FP32">
					<dim>64</dim>
					<dim>64</dim>
					<dim>3</dim>
					<dim>3</dim>
				</port>
			</input>
			<output>
				<port id="2" precision="FP32">
					<dim>1</dim>
					<dim>64</dim>
					<dim>54</dim>
					<dim>96</dim>
				</port>
			</output>
		</layer>
		<layer id="15" name="Reshape_153_compressed" type="Const" version="opset1">
			<data element_type="f16" shape="1, 64, 1, 1" offset="92678" size="128"/>
			<output>
				<port id="0" precision="FP16">
					<dim>1</dim>
					<dim>64</dim>
					<dim>1</dim>
					<dim>1</dim>
				</port>
			</output>
		</layer>
		<layer id="16" name="Reshape_153" type="Convert" version="opset1">
			<data destination_type="f32"/>
			<rt_info>
				<attribute name="decompression" version="0"/>
			</rt_info>
			<input>
				<port id="0" precision="FP16">
					<dim>1</dim>
					<dim>64</dim>
					<dim>1</dim>
					<dim>1</dim>
				</port>
			</input>
			<output>
				<port id="1" precision="FP32">
					<dim>1</dim>
					<dim>64</dim>
					<dim>1</dim>
					<dim>1</dim>
				</port>
			</output>
		</layer>
		<layer id="17" name="input.16" type="Add" version="opset1">
			<data auto_broadcast="numpy"/>
			<rt_info>
				<attribute name="fused_names" version="0" value="Concat_152, Reshape_153, input.16"/>
			</rt_info>
			<input>
				<port id="0" precision="FP32">
					<dim>1</dim>
					<dim>64</dim>
					<dim>54</dim>
					<dim>96</dim>
				</port>
				<port id="1" precision="FP32">
					<dim>1</dim>
					<dim>64</dim>
					<dim>1</dim>
					<dim>1</dim>
				</port>
			</input>
			<output>
				<port id="2" precision="FP32" names="input.16">
					<dim>1</dim>
					<dim>64</dim>
					<dim>54</dim>
					<dim>96</dim>
				</port>
			</output>
		</layer>
		<layer id="18" name="onnx::Conv_235" type="ReLU" version="opset1">
			<rt_info>
				<attribute name="fused_names" version="0" value="onnx::Conv_235"/>
			</rt_info>
			<input>
				<port id="0" precision="FP32">
					<dim>1</dim>
					<dim>64</dim>
					<dim>54</dim>
					<dim>96</dim>
				</port>
			</input>
			<output>
				<port id="1" precision="FP32" names="onnx::Conv_235">
					<dim>1</dim>
					<dim>64</dim>
					<dim>54</dim>
					<dim>96</dim>
				</port>
			</output>
		</layer>
		<layer id="19" name="onnx::Conv_374_compressed" type="Const" version="opset1">
			<data element_type="f16" shape="64, 64, 3, 3" offset="92806" size="73728"/>
			<output>
				<port id="0" precision="FP16">
					<dim>64</dim>
					<dim>64</dim>
					<dim>3</dim>
					<dim>3</dim>
				</port>
			</output>
		</layer>
		<layer id="20" name="onnx::Conv_374" type="Convert" version="opset1">
			<data destination_type="f32"/>
			<rt_info>
				<attribute name="decompression" version="0"/>
				<attribute name="fused_names" version="0" value="onnx::Conv_374"/>
			</rt_info>
			<input>
				<port id="0" precision="FP16">
					<dim>64</dim>
					<dim>64</dim>
					<dim>3</dim>
					<dim>3</dim>
				</port>
			</input>
			<output>
				<port id="1" precision="FP32" names="onnx::Conv_374">
					<dim>64</dim>
					<dim>64</dim>
					<dim>3</dim>
					<dim>3</dim>
				</port>
			</output>
		</layer>
		<layer id="21" name="Convolution_182" type="Convolution" version="opset1">
			<data strides="1, 1" dilations="1, 1" pads_begin="1, 1" pads_end="1, 1" auto_pad="explicit"/>
			<rt_info>
				<attribute name="fused_names" version="0" value="Convolution_182"/>
			</rt_info>
			<input>
				<port id="0" precision="FP32">
					<dim>1</dim>
					<dim>64</dim>
					<dim>54</dim>
					<dim>96</dim>
				</port>
				<port id="1" precision="FP32">
					<dim>64</dim>
					<dim>64</dim>
					<dim>3</dim>
					<dim>3</dim>
				</port>
			</input>
			<output>
				<port id="2" precision="FP32">
					<dim>1</dim>
					<dim>64</dim>
					<dim>54</dim>
					<dim>96</dim>
				</port>
			</output>
		</layer>
		<layer id="22" name="Reshape_202_compressed" type="Const" version="opset1">
			<data element_type="f16" shape="1, 64, 1, 1" offset="166534" size="128"/>
			<output>
				<port id="0" precision="FP16">
					<dim>1</dim>
					<dim>64</dim>
					<dim>1</dim>
					<dim>1</dim>
				</port>
			</output>
		</layer>
		<layer id="23" name="Reshape_202" type="Convert" version="opset1">
			<data destination_type="f32"/>
			<rt_info>
				<attribute name="decompression" version="0"/>
			</rt_info>
			<input>
				<port id="0" precision="FP16">
					<dim>1</dim>
					<dim>64</dim>
					<dim>1</dim>
					<dim>1</dim>
				</port>
			</input>
			<output>
				<port id="1" precision="FP32">
					<dim>1</dim>
					<dim>64</dim>
					<dim>1</dim>
					<dim>1</dim>
				</port>
			</output>
		</layer>
		<layer id="24" name="onnx::Add_373" type="Add" version="opset1">
			<data auto_broadcast="numpy"/>
			<rt_info>
				<attribute name="fused_names" version="0" value="Concat_201, Reshape_202, onnx::Add_373"/>
			</rt_info>
			<input>
				<port id="0" precision="FP32">
					<dim>1</dim>
					<dim>64</dim>
					<dim>54</dim>
					<dim>96</dim>
				</port>
				<port id="1" precision="FP32">
					<dim>1</dim>
					<dim>64</dim>
					<dim>1</dim>
					<dim>1</dim>
				</port>
			</input>
			<output>
				<port id="2" precision="FP32" names="onnx::Add_373">
					<dim>1</dim>
					<dim>64</dim>
					<dim>54</dim>
					<dim>96</dim>
				</port>
			</output>
		</layer>
		<layer id="25" name="onnx::Relu_238" type="Add" version="opset1">
			<data auto_broadcast="numpy"/>
			<rt_info>
				<attribute name="fused_names" version="0" value="onnx::Relu_238"/>
			</rt_info>
			<input>
				<port id="0" precision="FP32">
					<dim>1</dim>
					<dim>64</dim>
					<dim>54</dim>
					<dim>96</dim>
				</port>
				<port id="1" precision="FP32">
					<dim>1</dim>
					<dim>64</dim>
					<dim>54</dim>
					<dim>96</dim>
				</port>
			</input>
			<output>
				<port id="2" precision="FP32" names="onnx::Relu_238">
					<dim>1</dim>
					<dim>64</dim>
					<dim>54</dim>
					<dim>96</dim>
				</port>
			</output>
		</layer>
		<layer id="26" name="input.24" type="ReLU" version="opset1">
			<rt_info>
				<attribute name="fused_names" version="0" value="input.24"/>
			</rt_info>
			<input>
				<port id="0" precision="FP32">
					<dim>1</dim>
					<dim>64</dim>
					<dim>54</dim>
					<dim>96</dim>
				</port>
			</input>
			<output>
				<port id="1" precision="FP32" names="input.24">
					<dim>1</dim>
					<dim>64</dim>
					<dim>54</dim>
					<dim>96</dim>
				</port>
			</output>
		</layer>
		<layer id="27" name="onnx::Conv_377_compressed" type="Const" version="opset1">
			<data element_type="f16" shape="64, 64, 3, 3" offset="166662" size="73728"/>
			<output>
				<port id="0" precision="FP16">
					<dim>64</dim>
					<dim>64</dim>
					<dim>3</dim>
					<dim>3</dim>
				</port>
			</output>
		</layer>
		<layer id="28" name="onnx::Conv_377" type="Convert" version="opset1">
			<data destination_type="f32"/>
			<rt_info>
				<attribute name="decompression" version="0"/>
				<attribute name="fused_names" version="0" value="onnx::Conv_377"/>
			</rt_info>
			<input>
				<port id="0" precision="FP16">
					<dim>64</dim>
					<dim>64</dim>
					<dim>3</dim>
					<dim>3</dim>
				</port>
			</input>
			<output>
				<port id="1" precision="FP32" names="onnx::Conv_377">
					<dim>64</dim>
					<dim>64</dim>
					<dim>3</dim>
					<dim>3</dim>
				</port>
			</output>
		</layer>
		<layer id="29" name="Convolution_232" type="Convolution" version="opset1">
			<data strides="1, 1" dilations="1, 1" pads_begin="1, 1" pads_end="1, 1" auto_pad="explicit"/>
			<rt_info>
				<attribute name="fused_names" version="0" value="Convolution_232"/>
			</rt_info>
			<input>
				<port id="0" precision="FP32">
					<dim>1</dim>
					<dim>64</dim>
					<dim>54</dim>
					<dim>96</dim>
				</port>
				<port id="1" precision="FP32">
					<dim>64</dim>
					<dim>64</dim>
					<dim>3</dim>
					<dim>3</dim>
				</port>
			</input>
			<output>
				<port id="2" precision="FP32">
					<dim>1</dim>
					<dim>64</dim>
					<dim>54</dim>
					<dim>96</dim>
				</port>
			</output>
		</layer>
		<layer id="30" name="Reshape_252_compressed" type="Const" version="opset1">
			<data element_type="f16" shape="1, 64, 1, 1" offset="240390" size="128"/>
			<output>
				<port id="0" precision="FP16">
					<dim>1</dim>
					<dim>64</dim>
					<dim>1</dim>
					<dim>1</dim>
				</port>
			</output>
		</layer>
		<layer id="31" name="Reshape_252" type="Convert" version="opset1">
			<data destination_type="f32"/>
			<rt_info>
				<attribute name="decompression" version="0"/>
			</rt_info>
			<input>
				<port id="0" precision="FP16">
					<dim>1</dim>
					<dim>64</dim>
					<dim>1</dim>
					<dim>1</dim>
				</port>
			</input>
			<output>
				<port id="1" precision="FP32">
					<dim>1</dim>
					<dim>64</dim>
					<dim>1</dim>
					<dim>1</dim>
				</port>
			</output>
		</layer>
		<layer id="32" name="input.32" type="Add" version="opset1">
			<data auto_broadcast="numpy"/>
			<rt_info>
				<attribute name="fused_names" version="0" value="Concat_251, Reshape_252, input.32"/>
			</rt_info>
			<input>
				<port id="0" precision="FP32">
					<dim>1</dim>
					<dim>64</dim>
					<dim>54</dim>
					<dim>96</dim>
				</port>
				<port id="1" precision="FP32">
					<dim>1</dim>
					<dim>64</dim>
					<dim>1</dim>
					<dim>1</dim>
				</port>
			</input>
			<output>
				<port id="2" precision="FP32" names="input.32">
					<dim>1</dim>
					<dim>64</dim>
					<dim>54</dim>
					<dim>96</dim>
				</port>
			</output>
		</layer>
		<layer id="33" name="onnx::Conv_242" type="ReLU" version="opset1">
			<rt_info>
				<attribute name="fused_names" version="0" value="onnx::Conv_242"/>
			</rt_info>
			<input>
				<port id="0" precision="FP32">
					<dim>1</dim>
					<dim>64</dim>
					<dim>54</dim>
					<dim>96</dim>
				</port>
			</input>
			<output>
				<port id="1" precision="FP32" names="onnx::Conv_242">
					<dim>1</dim>
					<dim>64</dim>
					<dim>54</dim>
					<dim>96</dim>
				</port>
			</output>
		</layer>
		<layer id="34" name="onnx::Conv_380_compressed" type="Const" version="opset1">
			<data element_type="f16" shape="64, 64, 3, 3" offset="240518" size="73728"/>
			<output>
				<port id="0" precision="FP16">
					<dim>64</dim>
					<dim>64</dim>
					<dim>3</dim>
					<dim>3</dim>
				</port>
			</output>
		</layer>
		<layer id="35" name="onnx::Conv_380" type="Convert" version="opset1">
			<data destination_type="f32"/>
			<rt_info>
				<attribute name="decompression" version="0"/>
				<attribute name="fused_names" version="0" value="onnx::Conv_380"/>
			</rt_info>
			<input>
				<port id="0" precision="FP16">
					<dim>64</dim>
					<dim>64</dim>
					<dim>3</dim>
					<dim>3</dim>
				</port>
			</input>
			<output>
				<port id="1" precision="FP32" names="onnx::Conv_380">
					<dim>64</dim>
					<dim>64</dim>
					<dim>3</dim>
					<dim>3</dim>
				</port>
			</output>
		</layer>
		<layer id="36" name="Convolution_281" type="Convolution" version="opset1">
			<data strides="1, 1" dilations="1, 1" pads_begin="1, 1" pads_end="1, 1" auto_pad="explicit"/>
			<rt_info>
				<attribute name="fused_names" version="0" value="Convolution_281"/>
			</rt_info>
			<input>
				<port id="0" precision="FP32">
					<dim>1</dim>
					<dim>64</dim>
					<dim>54</dim>
					<dim>96</dim>
				</port>
				<port id="1" precision="FP32">
					<dim>64</dim>
					<dim>64</dim>
					<dim>3</dim>
					<dim>3</dim>
				</port>
			</input>
			<output>
				<port id="2" precision="FP32">
					<dim>1</dim>
					<dim>64</dim>
					<dim>54</dim>
					<dim>96</dim>
				</port>
			</output>
		</layer>
		<layer id="37" name="Reshape_301_compressed" type="Const" version="opset1">
			<data element_type="f16" shape="1, 64, 1, 1" offset="314246" size="128"/>
			<output>
				<port id="0" precision="FP16">
					<dim>1</dim>
					<dim>64</dim>
					<dim>1</dim>
					<dim>1</dim>
				</port>
			</output>
		</layer>
		<layer id="38" name="Reshape_301" type="Convert" version="opset1">
			<data destination_type="f32"/>
			<rt_info>
				<attribute name="decompression" version="0"/>
			</rt_info>
			<input>
				<port id="0" precision="FP16">
					<dim>1</dim>
					<dim>64</dim>
					<dim>1</dim>
					<dim>1</dim>
				</port>
			</input>
			<output>
				<port id="1" precision="FP32">
					<dim>1</dim>
					<dim>64</dim>
					<dim>1</dim>
					<dim>1</dim>
				</port>
			</output>
		</layer>
		<layer id="39" name="onnx::Add_379" type="Add" version="opset1">
			<data auto_broadcast="numpy"/>
			<rt_info>
				<attribute name="fused_names" version="0" value="Concat_300, Reshape_301, onnx::Add_379"/>
			</rt_info>
			<input>
				<port id="0" precision="FP32">
					<dim>1</dim>
					<dim>64</dim>
					<dim>54</dim>
					<dim>96</dim>
				</port>
				<port id="1" precision="FP32">
					<dim>1</dim>
					<dim>64</dim>
					<dim>1</dim>
					<dim>1</dim>
				</port>
			</input>
			<output>
				<port id="2" precision="FP32" names="onnx::Add_379">
					<dim>1</dim>
					<dim>64</dim>
					<dim>54</dim>
					<dim>96</dim>
				</port>
			</output>
		</layer>
		<layer id="40" name="onnx::Relu_245" type="Add" version="opset1">
			<data auto_broadcast="numpy"/>
			<rt_info>
				<attribute name="fused_names" version="0" value="onnx::Relu_245"/>
			</rt_info>
			<input>
				<port id="0" precision="FP32">
					<dim>1</dim>
					<dim>64</dim>
					<dim>54</dim>
					<dim>96</dim>
				</port>
				<port id="1" precision="FP32">
					<dim>1</dim>
					<dim>64</dim>
					<dim>54</dim>
					<dim>96</dim>
				</port>
			</input>
			<output>
				<port id="2" precision="FP32" names="onnx::Relu_245">
					<dim>1</dim>
					<dim>64</dim>
					<dim>54</dim>
					<dim>96</dim>
				</port>
			</output>
		</layer>
		<layer id="41" name="input.40" type="ReLU" version="opset1">
			<rt_info>
				<attribute name="fused_names" version="0" value="input.40"/>
			</rt_info>
			<input>
				<port id="0" precision="FP32">
					<dim>1</dim>
					<dim>64</dim>
					<dim>54</dim>
					<dim>96</dim>
				</port>
			</input>
			<output>
				<port id="1" precision="FP32" names="input.40">
					<dim>1</dim>
					<dim>64</dim>
					<dim>54</dim>
					<dim>96</dim>
				</port>
			</output>
		</layer>
		<layer id="42" name="onnx::Conv_383_compressed" type="Const" version="opset1">
			<data element_type="f16" shape="64, 64, 3, 3" offset="314374" size="73728"/>
			<output>
				<port id="0" precision="FP16">
					<dim>64</dim>
					<dim>64</dim>
					<dim>3</dim>
					<dim>3</dim>
				</port>
			</output>
		</layer>
		<layer id="43" name="onnx::Conv_383" type="Convert" version="opset1">
			<data destination_type="f32"/>
			<rt_info>
				<attribute name="decompression" version="0"/>
				<attribute name="fused_names" version="0" value="onnx::Conv_383"/>
			</rt_info>
			<input>
				<port id="0" precision="FP16">
					<dim>64</dim>
					<dim>64</dim>
					<dim>3</dim>
					<dim>3</dim>
				</port>
			</input>
			<output>
				<port id="1" precision="FP32" names="onnx::Conv_383">
					<dim>64</dim>
					<dim>64</dim>
					<dim>3</dim>
					<dim>3</dim>
				</port>
			</output>
		</layer>
		<layer id="44" name="Convolution_331" type="Convolution" version="opset1">
			<data strides="1, 1" dilations="1, 1" pads_begin="1, 1" pads_end="1, 1" auto_pad="explicit"/>
			<rt_info>
				<attribute name="fused_names" version="0" value="Convolution_331"/>
			</rt_info>
			<input>
				<port id="0" precision="FP32">
					<dim>1</dim>
					<dim>64</dim>
					<dim>54</dim>
					<dim>96</dim>
				</port>
				<port id="1" precision="FP32">
					<dim>64</dim>
					<dim>64</dim>
					<dim>3</dim>
					<dim>3</dim>
				</port>
			</input>
			<output>
				<port id="2" precision="FP32">
					<dim>1</dim>
					<dim>64</dim>
					<dim>54</dim>
					<dim>96</dim>
				</port>
			</output>
		</layer>
		<layer id="45" name="Reshape_351_compressed" type="Const" version="opset1">
			<data element_type="f16" shape="1, 64, 1, 1" offset="388102" size="128"/>
			<output>
				<port id="0" precision="FP16">
					<dim>1</dim>
					<dim>64</dim>
					<dim>1</dim>
					<dim>1</dim>
				</port>
			</output>
		</layer>
		<layer id="46" name="Reshape_351" type="Convert" version="opset1">
			<data destination_type="f32"/>
			<rt_info>
				<attribute name="decompression" version="0"/>
			</rt_info>
			<input>
				<port id="0" precision="FP16">
					<dim>1</dim>
					<dim>64</dim>
					<dim>1</dim>
					<dim>1</dim>
				</port>
			</input>
			<output>
				<port id="1" precision="FP32">
					<dim>1</dim>
					<dim>64</dim>
					<dim>1</dim>
					<dim>1</dim>
				</port>
			</output>
		</layer>
		<layer id="47" name="input.48" type="Add" version="opset1">
			<data auto_broadcast="numpy"/>
			<rt_info>
				<attribute name="fused_names" version="0" value="Concat_350, Reshape_351, input.48"/>
			</rt_info>
			<input>
				<port id="0" precision="FP32">
					<dim>1</dim>
					<dim>64</dim>
					<dim>54</dim>
					<dim>96</dim>
				</port>
				<port id="1" precision="FP32">
					<dim>1</dim>
					<dim>64</dim>
					<dim>1</dim>
					<dim>1</dim>
				</port>
			</input>
			<output>
				<port id="2" precision="FP32" names="input.48">
					<dim>1</dim>
					<dim>64</dim>
					<dim>54</dim>
					<dim>96</dim>
				</port>
			</output>
		</layer>
		<layer id="48" name="onnx::Conv_249" type="ReLU" version="opset1">
			<rt_info>
				<attribute name="fused_names" version="0" value="onnx::Conv_249"/>
			</rt_info>
			<input>
				<port id="0" precision="FP32">
					<dim>1</dim>
					<dim>64</dim>
					<dim>54</dim>
					<dim>96</dim>
				</port>
			</input>
			<output>
				<port id="1" precision="FP32" names="onnx::Conv_249">
					<dim>1</dim>
					<dim>64</dim>
					<dim>54</dim>
					<dim>96</dim>
				</port>
			</output>
		</layer>
		<layer id="49" name="onnx::Conv_386_compressed" type="Const" version="opset1">
			<data element_type="f16" shape="64, 64, 3, 3" offset="388230" size="73728"/>
			<output>
				<port id="0" precision="FP16">
					<dim>64</dim>
					<dim>64</dim>
					<dim>3</dim>
					<dim>3</dim>
				</port>
			</output>
		</layer>
		<layer id="50" name="onnx::Conv_386" type="Convert" version="opset1">
			<data destination_type="f32"/>
			<rt_info>
				<attribute name="decompression" version="0"/>
				<attribute name="fused_names" version="0" value="onnx::Conv_386"/>
			</rt_info>
			<input>
				<port id="0" precision="FP16">
					<dim>64</dim>
					<dim>64</dim>
					<dim>3</dim>
					<dim>3</dim>
				</port>
			</input>
			<output>
				<port id="1" precision="FP32" names="onnx::Conv_386">
					<dim>64</dim>
					<dim>64</dim>
					<dim>3</dim>
					<dim>3</dim>
				</port>
			</output>
		</layer>
		<layer id="51" name="Convolution_380" type="Convolution" version="opset1">
			<data strides="1, 1" dilations="1, 1" pads_begin="1, 1" pads_end="1, 1" auto_pad="explicit"/>
			<rt_info>
				<attribute name="fused_names" version="0" value="Convolution_380"/>
			</rt_info>
			<input>
				<port id="0" precision="FP32">
					<dim>1</dim>
					<dim>64</dim>
					<dim>54</dim>
					<dim>96</dim>
				</port>
				<port id="1" precision="FP32">
					<dim>64</dim>
					<dim>64</dim>
					<dim>3</dim>
					<dim>3</dim>
				</port>
			</input>
			<output>
				<port id="2" precision="FP32">
					<dim>1</dim>
					<dim>64</dim>
					<dim>54</dim>
					<dim>96</dim>
				</port>
			</output>
		</layer>
		<layer id="52" name="Reshape_400_compressed" type="Const" version="opset1">
			<data element_type="f16" shape="1, 64, 1, 1" offset="461958" size="128"/>
			<output>
				<port id="0" precision="FP16">
					<dim>1</dim>
					<dim>64</dim>
					<dim>1</dim>
					<dim>1</dim>
				</port>
			</output>
		</layer>
		<layer id="53" name="Reshape_400" type="Convert" version="opset1">
			<data destination_type="f32"/>
			<rt_info>
				<attribute name="decompression" version="0"/>
			</rt_info>
			<input>
				<port id="0" precision="FP16">
					<dim>1</dim>
					<dim>64</dim>
					<dim>1</dim>
					<dim>1</dim>
				</port>
			</input>
			<output>
				<port id="1" precision="FP32">
					<dim>1</dim>
					<dim>64</dim>
					<dim>1</dim>
					<dim>1</dim>
				</port>
			</output>
		</layer>
		<layer id="54" name="onnx::Add_385" type="Add" version="opset1">
			<data auto_broadcast="numpy"/>
			<rt_info>
				<attribute name="fused_names" version="0" value="Concat_399, Reshape_400, onnx::Add_385"/>
			</rt_info>
			<input>
				<port id="0" precision="FP32">
					<dim>1</dim>
					<dim>64</dim>
					<dim>54</dim>
					<dim>96</dim>
				</port>
				<port id="1" precision="FP32">
					<dim>1</dim>
					<dim>64</dim>
					<dim>1</dim>
					<dim>1</dim>
				</port>
			</input>
			<output>
				<port id="2" precision="FP32" names="onnx::Add_385">
					<dim>1</dim>
					<dim>64</dim>
					<dim>54</dim>
					<dim>96</dim>
				</port>
			</output>
		</layer>
		<layer id="55" name="onnx::Relu_252" type="Add" version="opset1">
			<data auto_broadcast="numpy"/>
			<rt_info>
				<attribute name="fused_names" version="0" value="onnx::Relu_252"/>
			</rt_info>
			<input>
				<port id="0" precision="FP32">
					<dim>1</dim>
					<dim>64</dim>
					<dim>54</dim>
					<dim>96</dim>
				</port>
				<port id="1" precision="FP32">
					<dim>1</dim>
					<dim>64</dim>
					<dim>54</dim>
					<dim>96</dim>
				</port>
			</input>
			<output>
				<port id="2" precision="FP32" names="onnx::Relu_252">
					<dim>1</dim>
					<dim>64</dim>
					<dim>54</dim>
					<dim>96</dim>
				</port>
			</output>
		</layer>
		<layer id="56" name="input.56" type="ReLU" version="opset1">
			<rt_info>
				<attribute name="fused_names" version="0" value="input.56"/>
			</rt_info>
			<input>
				<port id="0" precision="FP32">
					<dim>1</dim>
					<dim>64</dim>
					<dim>54</dim>
					<dim>96</dim>
				</port>
			</input>
			<output>
				<port id="1" precision="FP32" names="input.56">
					<dim>1</dim>
					<dim>64</dim>
					<dim>54</dim>
					<dim>96</dim>
				</port>
			</output>
		</layer>
		<layer id="57" name="onnx::Conv_389_compressed" type="Const" version="opset1">
			<data element_type="f16" shape="128, 64, 3, 3" offset="462086" size="147456"/>
			<output>
				<port id="0" precision="FP16">
					<dim>128</dim>
					<dim>64</dim>
					<dim>3</dim>
					<dim>3</dim>
				</port>
			</output>
		</layer>
		<layer id="58" name="onnx::Conv_389" type="Convert" version="opset1">
			<data destination_type="f32"/>
			<rt_info>
				<attribute name="decompression" version="0"/>
				<attribute name="fused_names" version="0" value="onnx::Conv_389"/>
			</rt_info>
			<input>
				<port id="0" precision="FP16">
					<dim>128</dim>
					<dim>64</dim>
					<dim>3</dim>
					<dim>3</dim>
				</port>
			</input>
			<output>
				<port id="1" precision="FP32" names="onnx::Conv_389">
					<dim>128</dim>
					<dim>64</dim>
					<dim>3</dim>
					<dim>3</dim>
				</port>
			</output>
		</layer>
		<layer id="59" name="Convolution_430" type="Convolution" version="opset1">
			<data strides="2, 2" dilations="1, 1" pads_begin="1, 1" pads_end="1, 1" auto_pad="explicit"/>
			<rt_info>
				<attribute name="fused_names" version="0" value="Convolution_430"/>
			</rt_info>
			<input>
				<port id="0" precision="FP32">
					<dim>1</dim>
					<dim>64</dim>
					<dim>54</dim>
					<dim>96</dim>
				</port>
				<port id="1" precision="FP32">
					<dim>128</dim>
					<dim>64</dim>
					<dim>3</dim>
					<dim>3</dim>
				</port>
			</input>
			<output>
				<port id="2" precision="FP32">
					<dim>1</dim>
					<dim>128</dim>
					<dim>27</dim>
					<dim>48</dim>
				</port>
			</output>
		</layer>
		<layer id="60" name="Reshape_450_compressed" type="Const" version="opset1">
			<data element_type="f16" shape="1, 128, 1, 1" offset="609542" size="256"/>
			<output>
				<port id="0" precision="FP16">
					<dim>1</dim>
					<dim>128</dim>
					<dim>1</dim>
					<dim>1</dim>
				</port>
			</output>
		</layer>
		<layer id="61" name="Reshape_450" type="Convert" version="opset1">
			<data destination_type="f32"/>
			<rt_info>
				<attribute name="decompression" version="0"/>
			</rt_info>
			<input>
				<port id="0" precision="FP16">
					<dim>1</dim>
					<dim>128</dim>
					<dim>1</dim>
					<dim>1</dim>
				</port>
			</input>
			<output>
				<port id="1" precision="FP32">
					<dim>1</dim>
					<dim>128</dim>
					<dim>1</dim>
					<dim>1</dim>
				</port>
			</output>
		</layer>
		<layer id="62" name="input.64" type="Add" version="opset1">
			<data auto_broadcast="numpy"/>
			<rt_info>
				<attribute name="fused_names" version="0" value="Concat_449, Reshape_450, input.64"/>
			</rt_info>
			<input>
				<port id="0" precision="FP32">
					<dim>1</dim>
					<dim>128</dim>
					<dim>27</dim>
					<dim>48</dim>
				</port>
				<port id="1" precision="FP32">
					<dim>1</dim>
					<dim>128</dim>
					<dim>1</dim>
					<dim>1</dim>
				</port>
			</input>
			<output>
				<port id="2" precision="FP32" names="input.64">
					<dim>1</dim>
					<dim>128</dim>
					<dim>27</dim>
					<dim>48</dim>
				</port>
			</output>
		</layer>
		<layer id="63" name="onnx::Conv_256" type="ReLU" version="opset1">
			<rt_info>
				<attribute name="fused_names" version="0" value="onnx::Conv_256"/>
			</rt_info>
			<input>
				<port id="0" precision="FP32">
					<dim>1</dim>
					<dim>128</dim>
					<dim>27</dim>
					<dim>48</dim>
				</port>
			</input>
			<output>
				<port id="1" precision="FP32" names="onnx::Conv_256">
					<dim>1</dim>
					<dim>128</dim>
					<dim>27</dim>
					<dim>48</dim>
				</port>
			</output>
		</layer>
		<layer id="64" name="onnx::Conv_392_compressed" type="Const" version="opset1">
			<data element_type="f16" shape="128, 128, 3, 3" offset="609798" size="294912"/>
			<output>
				<port id="0" precision="FP16">
					<dim>128</dim>
					<dim>128</dim>
					<dim>3</dim>
					<dim>3</dim>
				</port>
			</output>
		</layer>
		<layer id="65" name="onnx::Conv_392" type="Convert" version="opset1">
			<data destination_type="f32"/>
			<rt_info>
				<attribute name="decompression" version="0"/>
				<attribute name="fused_names" version="0" value="onnx::Conv_392"/>
			</rt_info>
			<input>
				<port id="0" precision="FP16">
					<dim>128</dim>
					<dim>128</dim>
					<dim>3</dim>
					<dim>3</dim>
				</port>
			</input>
			<output>
				<port id="1" precision="FP32" names="onnx::Conv_392">
					<dim>128</dim>
					<dim>128</dim>
					<dim>3</dim>
					<dim>3</dim>
				</port>
			</output>
		</layer>
		<layer id="66" name="Convolution_479" type="Convolution" version="opset1">
			<data strides="1, 1" dilations="1, 1" pads_begin="1, 1" pads_end="1, 1" auto_pad="explicit"/>
			<rt_info>
				<attribute name="fused_names" version="0" value="Convolution_479"/>
			</rt_info>
			<input>
				<port id="0" precision="FP32">
					<dim>1</dim>
					<dim>128</dim>
					<dim>27</dim>
					<dim>48</dim>
				</port>
				<port id="1" precision="FP32">
					<dim>128</dim>
					<dim>128</dim>
					<dim>3</dim>
					<dim>3</dim>
				</port>
			</input>
			<output>
				<port id="2" precision="FP32">
					<dim>1</dim>
					<dim>128</dim>
					<dim>27</dim>
					<dim>48</dim>
				</port>
			</output>
		</layer>
		<layer id="67" name="Reshape_499_compressed" type="Const" version="opset1">
			<data element_type="f16" shape="1, 128, 1, 1" offset="904710" size="256"/>
			<output>
				<port id="0" precision="FP16">
					<dim>1</dim>
					<dim>128</dim>
					<dim>1</dim>
					<dim>1</dim>
				</port>
			</output>
		</layer>
		<layer id="68" name="Reshape_499" type="Convert" version="opset1">
			<data destination_type="f32"/>
			<rt_info>
				<attribute name="decompression" version="0"/>
			</rt_info>
			<input>
				<port id="0" precision="FP16">
					<dim>1</dim>
					<dim>128</dim>
					<dim>1</dim>
					<dim>1</dim>
				</port>
			</input>
			<output>
				<port id="1" precision="FP32">
					<dim>1</dim>
					<dim>128</dim>
					<dim>1</dim>
					<dim>1</dim>
				</port>
			</output>
		</layer>
		<layer id="69" name="onnx::Add_391" type="Add" version="opset1">
			<data auto_broadcast="numpy"/>
			<rt_info>
				<attribute name="fused_names" version="0" value="Concat_498, Reshape_499, onnx::Add_391"/>
			</rt_info>
			<input>
				<port id="0" precision="FP32">
					<dim>1</dim>
					<dim>128</dim>
					<dim>27</dim>
					<dim>48</dim>
				</port>
				<port id="1" precision="FP32">
					<dim>1</dim>
					<dim>128</dim>
					<dim>1</dim>
					<dim>1</dim>
				</port>
			</input>
			<output>
				<port id="2" precision="FP32" names="onnx::Add_391">
					<dim>1</dim>
					<dim>128</dim>
					<dim>27</dim>
					<dim>48</dim>
				</port>
			</output>
		</layer>
		<layer id="70" name="onnx::Conv_395_compressed" type="Const" version="opset1">
			<data element_type="f16" shape="128, 64, 1, 1" offset="904966" size="16384"/>
			<output>
				<port id="0" precision="FP16">
					<dim>128</dim>
					<dim>64</dim>
					<dim>1</dim>
					<dim>1</dim>
				</port>
			</output>
		</layer>
		<layer id="71" name="onnx::Conv_395" type="Convert" version="opset1">
			<data destination_type="f32"/>
			<rt_info>
				<attribute name="decompression" version="0"/>
				<attribute name="fused_names" version="0" value="onnx::Conv_395"/>
			</rt_info>
			<input>
				<port id="0" precision="FP16">
					<dim>128</dim>
					<dim>64</dim>
					<dim>1</dim>
					<dim>1</dim>
				</port>
			</input>
			<output>
				<port id="1" precision="FP32" names="onnx::Conv_395">
					<dim>128</dim>
					<dim>64</dim>
					<dim>1</dim>
					<dim>1</dim>
				</port>
			</output>
		</layer>
		<layer id="72" name="Convolution_527" type="Convolution" version="opset1">
			<data strides="2, 2" dilations="1, 1" pads_begin="0, 0" pads_end="0, 0" auto_pad="explicit"/>
			<rt_info>
				<attribute name="fused_names" version="0" value="Convolution_527"/>
			</rt_info>
			<input>
				<port id="0" precision="FP32">
					<dim>1</dim>
					<dim>64</dim>
					<dim>54</dim>
					<dim>96</dim>
				</port>
				<port id="1" precision="FP32">
					<dim>128</dim>
					<dim>64</dim>
					<dim>1</dim>
					<dim>1</dim>
				</port>
			</input>
			<output>
				<port id="2" precision="FP32">
					<dim>1</dim>
					<dim>128</dim>
					<dim>27</dim>
					<dim>48</dim>
				</port>
			</output>
		</layer>
		<layer id="73" name="Reshape_547_compressed" type="Const" version="opset1">
			<data element_type="f16" shape="1, 128, 1, 1" offset="921350" size="256"/>
			<output>
				<port id="0" precision="FP16">
					<dim>1</dim>
					<dim>128</dim>
					<dim>1</dim>
					<dim>1</dim>
				</port>
			</output>
		</layer>
		<layer id="74" name="Reshape_547" type="Convert" version="opset1">
			<data destination_type="f32"/>
			<rt_info>
				<attribute name="decompression" version="0"/>
			</rt_info>
			<input>
				<port id="0" precision="FP16">
					<dim>1</dim>
					<dim>128</dim>
					<dim>1</dim>
					<dim>1</dim>
				</port>
			</input>
			<output>
				<port id="1" precision="FP32">
					<dim>1</dim>
					<dim>128</dim>
					<dim>1</dim>
					<dim>1</dim>
				</port>
			</output>
		</layer>
		<layer id="75" name="onnx::Add_394" type="Add" version="opset1">
			<data auto_broadcast="numpy"/>
			<rt_info>
				<attribute name="fused_names" version="0" value="Concat_546, Reshape_547, onnx::Add_394"/>
			</rt_info>
			<input>
				<port id="0" precision="FP32">
					<dim>1</dim>
					<dim>128</dim>
					<dim>27</dim>
					<dim>48</dim>
				</port>
				<port id="1" precision="FP32">
					<dim>1</dim>
					<dim>128</dim>
					<dim>1</dim>
					<dim>1</dim>
				</port>
			</input>
			<output>
				<port id="2" precision="FP32" names="onnx::Add_394">
					<dim>1</dim>
					<dim>128</dim>
					<dim>27</dim>
					<dim>48</dim>
				</port>
			</output>
		</layer>
		<layer id="76" name="onnx::Relu_261" type="Add" version="opset1">
			<data auto_broadcast="numpy"/>
			<rt_info>
				<attribute name="fused_names" version="0" value="onnx::Relu_261"/>
			</rt_info>
			<input>
				<port id="0" precision="FP32">
					<dim>1</dim>
					<dim>128</dim>
					<dim>27</dim>
					<dim>48</dim>
				</port>
				<port id="1" precision="FP32">
					<dim>1</dim>
					<dim>128</dim>
					<dim>27</dim>
					<dim>48</dim>
				</port>
			</input>
			<output>
				<port id="2" precision="FP32" names="onnx::Relu_261">
					<dim>1</dim>
					<dim>128</dim>
					<dim>27</dim>
					<dim>48</dim>
				</port>
			</output>
		</layer>
		<layer id="77" name="input.76" type="ReLU" version="opset1">
			<rt_info>
				<attribute name="fused_names" version="0" value="input.76"/>
			</rt_info>
			<input>
				<port id="0" precision="FP32">
					<dim>1</dim>
					<dim>128</dim>
					<dim>27</dim>
					<dim>48</dim>
				</port>
			</input>
			<output>
				<port id="1" precision="FP32" names="input.76">
					<dim>1</dim>
					<dim>128</dim>
					<dim>27</dim>
					<dim>48</dim>
				</port>
			</output>
		</layer>
		<layer id="78" name="onnx::Conv_398_compressed" type="Const" version="opset1">
			<data element_type="f16" shape="128, 128, 3, 3" offset="921606" size="294912"/>
			<output>
				<port id="0" precision="FP16">
					<dim>128</dim>
					<dim>128</dim>
					<dim>3</dim>
					<dim>3</dim>
				</port>
			</output>
		</layer>
		<layer id="79" name="onnx::Conv_398" type="Convert" version="opset1">
			<data destination_type="f32"/>
			<rt_info>
				<attribute name="decompression" version="0"/>
				<attribute name="fused_names" version="0" value="onnx::Conv_398"/>
			</rt_info>
			<input>
				<port id="0" precision="FP16">
					<dim>128</dim>
					<dim>128</dim>
					<dim>3</dim>
					<dim>3</dim>
				</port>
			</input>
			<output>
				<port id="1" precision="FP32" names="onnx::Conv_398">
					<dim>128</dim>
					<dim>128</dim>
					<dim>3</dim>
					<dim>3</dim>
				</port>
			</output>
		</layer>
		<layer id="80" name="Convolution_577" type="Convolution" version="opset1">
			<data strides="1, 1" dilations="1, 1" pads_begin="1, 1" pads_end="1, 1" auto_pad="explicit"/>
			<rt_info>
				<attribute name="fused_names" version="0" value="Convolution_577"/>
			</rt_info>
			<input>
				<port id="0" precision="FP32">
					<dim>1</dim>
					<dim>128</dim>
					<dim>27</dim>
					<dim>48</dim>
				</port>
				<port id="1" precision="FP32">
					<dim>128</dim>
					<dim>128</dim>
					<dim>3</dim>
					<dim>3</dim>
				</port>
			</input>
			<output>
				<port id="2" precision="FP32">
					<dim>1</dim>
					<dim>128</dim>
					<dim>27</dim>
					<dim>48</dim>
				</port>
			</output>
		</layer>
		<layer id="81" name="Reshape_597_compressed" type="Const" version="opset1">
			<data element_type="f16" shape="1, 128, 1, 1" offset="1216518" size="256"/>
			<output>
				<port id="0" precision="FP16">
					<dim>1</dim>
					<dim>128</dim>
					<dim>1</dim>
					<dim>1</dim>
				</port>
			</output>
		</layer>
		<layer id="82" name="Reshape_597" type="Convert" version="opset1">
			<data destination_type="f32"/>
			<rt_info>
				<attribute name="decompression" version="0"/>
			</rt_info>
			<input>
				<port id="0" precision="FP16">
					<dim>1</dim>
					<dim>128</dim>
					<dim>1</dim>
					<dim>1</dim>
				</port>
			</input>
			<output>
				<port id="1" precision="FP32">
					<dim>1</dim>
					<dim>128</dim>
					<dim>1</dim>
					<dim>1</dim>
				</port>
			</output>
		</layer>
		<layer id="83" name="input.84" type="Add" version="opset1">
			<data auto_broadcast="numpy"/>
			<rt_info>
				<attribute name="fused_names" version="0" value="Concat_596, Reshape_597, input.84"/>
			</rt_info>
			<input>
				<port id="0" precision="FP32">
					<dim>1</dim>
					<dim>128</dim>
					<dim>27</dim>
					<dim>48</dim>
				</port>
				<port id="1" precision="FP32">
					<dim>1</dim>
					<dim>128</dim>
					<dim>1</dim>
					<dim>1</dim>
				</port>
			</input>
			<output>
				<port id="2" precision="FP32" names="input.84">
					<dim>1</dim>
					<dim>128</dim>
					<dim>27</dim>
					<dim>48</dim>
				</port>
			</output>
		</layer>
		<layer id="84" name="onnx::Conv_265" type="ReLU" version="opset1">
			<rt_info>
				<attribute name="fused_names" version="0" value="onnx::Conv_265"/>
			</rt_info>
			<input>
				<port id="0" precision="FP32">
					<dim>1</dim>
					<dim>128</dim>
					<dim>27</dim>
					<dim>48</dim>
				</port>
			</input>
			<output>
				<port id="1" precision="FP32" names="onnx::Conv_265">
					<dim>1</dim>
					<dim>128</dim>
					<dim>27</dim>
					<dim>48</dim>
				</port>
			</output>
		</layer>
		<layer id="85" name="onnx::Conv_401_compressed" type="Const" version="opset1">
			<data element_type="f16" shape="128, 128, 3, 3" offset="1216774" size="294912"/>
			<output>
				<port id="0" precision="FP16">
					<dim>128</dim>
					<dim>128</dim>
					<dim>3</dim>
					<dim>3</dim>
				</port>
			</output>
		</layer>
		<layer id="86" name="onnx::Conv_401" type="Convert" version="opset1">
			<data destination_type="f32"/>
			<rt_info>
				<attribute name="decompression" version="0"/>
				<attribute name="fused_names" version="0" value="onnx::Conv_401"/>
			</rt_info>
			<input>
				<port id="0" precision="FP16">
					<dim>128</dim>
					<dim>128</dim>
					<dim>3</dim>
					<dim>3</dim>
				</port>
			</input>
			<output>
				<port id="1" precision="FP32" names="onnx::Conv_401">
					<dim>128</dim>
					<dim>128</dim>
					<dim>3</dim>
					<dim>3</dim>
				</port>
			</output>
		</layer>
		<layer id="87" name="Convolution_626" type="Convolution" version="opset1">
			<data strides="1, 1" dilations="1, 1" pads_begin="1, 1" pads_end="1, 1" auto_pad="explicit"/>
			<rt_info>
				<attribute name="fused_names" version="0" value="Convolution_626"/>
			</rt_info>
			<input>
				<port id="0" precision="FP32">
					<dim>1</dim>
					<dim>128</dim>
					<dim>27</dim>
					<dim>48</dim>
				</port>
				<port id="1" precision="FP32">
					<dim>128</dim>
					<dim>128</dim>
					<dim>3</dim>
					<dim>3</dim>
				</port>
			</input>
			<output>
				<port id="2" precision="FP32">
					<dim>1</dim>
					<dim>128</dim>
					<dim>27</dim>
					<dim>48</dim>
				</port>
			</output>
		</layer>
		<layer id="88" name="Reshape_646_compressed" type="Const" version="opset1">
			<data element_type="f16" shape="1, 128, 1, 1" offset="1511686" size="256"/>
			<output>
				<port id="0" precision="FP16">
					<dim>1</dim>
					<dim>128</dim>
					<dim>1</dim>
					<dim>1</dim>
				</port>
			</output>
		</layer>
		<layer id="89" name="Reshape_646" type="Convert" version="opset1">
			<data destination_type="f32"/>
			<rt_info>
				<attribute name="decompression" version="0"/>
			</rt_info>
			<input>
				<port id="0" precision="FP16">
					<dim>1</dim>
					<dim>128</dim>
					<dim>1</dim>
					<dim>1</dim>
				</port>
			</input>
			<output>
				<port id="1" precision="FP32">
					<dim>1</dim>
					<dim>128</dim>
					<dim>1</dim>
					<dim>1</dim>
				</port>
			</output>
		</layer>
		<layer id="90" name="onnx::Add_400" type="Add" version="opset1">
			<data auto_broadcast="numpy"/>
			<rt_info>
				<attribute name="fused_names" version="0" value="Concat_645, Reshape_646, onnx::Add_400"/>
			</rt_info>
			<input>
				<port id="0" precision="FP32">
					<dim>1</dim>
					<dim>128</dim>
					<dim>27</dim>
					<dim>48</dim>
				</port>
				<port id="1" precision="FP32">
					<dim>1</dim>
					<dim>128</dim>
					<dim>1</dim>
					<dim>1</dim>
				</port>
			</input>
			<output>
				<port id="2" precision="FP32" names="onnx::Add_400">
					<dim>1</dim>
					<dim>128</dim>
					<dim>27</dim>
					<dim>48</dim>
				</port>
			</output>
		</layer>
		<layer id="91" name="onnx::Relu_268" type="Add" version="opset1">
			<data auto_broadcast="numpy"/>
			<rt_info>
				<attribute name="fused_names" version="0" value="onnx::Relu_268"/>
			</rt_info>
			<input>
				<port id="0" precision="FP32">
					<dim>1</dim>
					<dim>128</dim>
					<dim>27</dim>
					<dim>48</dim>
				</port>
				<port id="1" precision="FP32">
					<dim>1</dim>
					<dim>128</dim>
					<dim>27</dim>
					<dim>48</dim>
				</port>
			</input>
			<output>
				<port id="2" precision="FP32" names="onnx::Relu_268">
					<dim>1</dim>
					<dim>128</dim>
					<dim>27</dim>
					<dim>48</dim>
				</port>
			</output>
		</layer>
		<layer id="92" name="input.92" type="ReLU" version="opset1">
			<rt_info>
				<attribute name="fused_names" version="0" value="input.92"/>
			</rt_info>
			<input>
				<port id="0" precision="FP32">
					<dim>1</dim>
					<dim>128</dim>
					<dim>27</dim>
					<dim>48</dim>
				</port>
			</input>
			<output>
				<port id="1" precision="FP32" names="input.92">
					<dim>1</dim>
					<dim>128</dim>
					<dim>27</dim>
					<dim>48</dim>
				</port>
			</output>
		</layer>
		<layer id="93" name="onnx::Conv_404_compressed" type="Const" version="opset1">
			<data element_type="f16" shape="128, 128, 3, 3" offset="1511942" size="294912"/>
			<output>
				<port id="0" precision="FP16">
					<dim>128</dim>
					<dim>128</dim>
					<dim>3</dim>
					<dim>3</dim>
				</port>
			</output>
		</layer>
		<layer id="94" name="onnx::Conv_404" type="Convert" version="opset1">
			<data destination_type="f32"/>
			<rt_info>
				<attribute name="decompression" version="0"/>
				<attribute name="fused_names" version="0" value="onnx::Conv_404"/>
			</rt_info>
			<input>
				<port id="0" precision="FP16">
					<dim>128</dim>
					<dim>128</dim>
					<dim>3</dim>
					<dim>3</dim>
				</port>
			</input>
			<output>
				<port id="1" precision="FP32" names="onnx::Conv_404">
					<dim>128</dim>
					<dim>128</dim>
					<dim>3</dim>
					<dim>3</dim>
				</port>
			</output>
		</layer>
		<layer id="95" name="Convolution_676" type="Convolution" version="opset1">
			<data strides="1, 1" dilations="1, 1" pads_begin="1, 1" pads_end="1, 1" auto_pad="explicit"/>
			<rt_info>
				<attribute name="fused_names" version="0" value="Convolution_676"/>
			</rt_info>
			<input>
				<port id="0" precision="FP32">
					<dim>1</dim>
					<dim>128</dim>
					<dim>27</dim>
					<dim>48</dim>
				</port>
				<port id="1" precision="FP32">
					<dim>128</dim>
					<dim>128</dim>
					<dim>3</dim>
					<dim>3</dim>
				</port>
			</input>
			<output>
				<port id="2" precision="FP32">
					<dim>1</dim>
					<dim>128</dim>
					<dim>27</dim>
					<dim>48</dim>
				</port>
			</output>
		</layer>
		<layer id="96" name="Reshape_696_compressed" type="Const" version="opset1">
			<data element_type="f16" shape="1, 128, 1, 1" offset="1806854" size="256"/>
			<output>
				<port id="0" precision="FP16">
					<dim>1</dim>
					<dim>128</dim>
					<dim>1</dim>
					<dim>1</dim>
				</port>
			</output>
		</layer>
		<layer id="97" name="Reshape_696" type="Convert" version="opset1">
			<data destination_type="f32"/>
			<rt_info>
				<attribute name="decompression" version="0"/>
			</rt_info>
			<input>
				<port id="0" precision="FP16">
					<dim>1</dim>
					<dim>128</dim>
					<dim>1</dim>
					<dim>1</dim>
				</port>
			</input>
			<output>
				<port id="1" precision="FP32">
					<dim>1</dim>
					<dim>128</dim>
					<dim>1</dim>
					<dim>1</dim>
				</port>
			</output>
		</layer>
		<layer id="98" name="input.100" type="Add" version="opset1">
			<data auto_broadcast="numpy"/>
			<rt_info>
				<attribute name="fused_names" version="0" value="Concat_695, Reshape_696, input.100"/>
			</rt_info>
			<input>
				<port id="0" precision="FP32">
					<dim>1</dim>
					<dim>128</dim>
					<dim>27</dim>
					<dim>48</dim>
				</port>
				<port id="1" precision="FP32">
					<dim>1</dim>
					<dim>128</dim>
					<dim>1</dim>
					<dim>1</dim>
				</port>
			</input>
			<output>
				<port id="2" precision="FP32" names="input.100">
					<dim>1</dim>
					<dim>128</dim>
					<dim>27</dim>
					<dim>48</dim>
				</port>
			</output>
		</layer>
		<layer id="99" name="onnx::Conv_272" type="ReLU" version="opset1">
			<rt_info>
				<attribute name="fused_names" version="0" value="onnx::Conv_272"/>
			</rt_info>
			<input>
				<port id="0" precision="FP32">
					<dim>1</dim>
					<dim>128</dim>
					<dim>27</dim>
					<dim>48</dim>
				</port>
			</input>
			<output>
				<port id="1" precision="FP32" names="onnx::Conv_272">
					<dim>1</dim>
					<dim>128</dim>
					<dim>27</dim>
					<dim>48</dim>
				</port>
			</output>
		</layer>
		<layer id="100" name="onnx::Conv_407_compressed" type="Const" version="opset1">
			<data element_type="f16" shape="128, 128, 3, 3" offset="1807110" size="294912"/>
			<output>
				<port id="0" precision="FP16">
					<dim>128</dim>
					<dim>128</dim>
					<dim>3</dim>
					<dim>3</dim>
				</port>
			</output>
		</layer>
		<layer id="101" name="onnx::Conv_407" type="Convert" version="opset1">
			<data destination_type="f32"/>
			<rt_info>
				<attribute name="decompression" version="0"/>
				<attribute name="fused_names" version="0" value="onnx::Conv_407"/>
			</rt_info>
			<input>
				<port id="0" precision="FP16">
					<dim>128</dim>
					<dim>128</dim>
					<dim>3</dim>
					<dim>3</dim>
				</port>
			</input>
			<output>
				<port id="1" precision="FP32" names="onnx::Conv_407">
					<dim>128</dim>
					<dim>128</dim>
					<dim>3</dim>
					<dim>3</dim>
				</port>
			</output>
		</layer>
		<layer id="102" name="Convolution_725" type="Convolution" version="opset1">
			<data strides="1, 1" dilations="1, 1" pads_begin="1, 1" pads_end="1, 1" auto_pad="explicit"/>
			<rt_info>
				<attribute name="fused_names" version="0" value="Convolution_725"/>
			</rt_info>
			<input>
				<port id="0" precision="FP32">
					<dim>1</dim>
					<dim>128</dim>
					<dim>27</dim>
					<dim>48</dim>
				</port>
				<port id="1" precision="FP32">
					<dim>128</dim>
					<dim>128</dim>
					<dim>3</dim>
					<dim>3</dim>
				</port>
			</input>
			<output>
				<port id="2" precision="FP32">
					<dim>1</dim>
					<dim>128</dim>
					<dim>27</dim>
					<dim>48</dim>
				</port>
			</output>
		</layer>
		<layer id="103" name="Reshape_745_compressed" type="Const" version="opset1">
			<data element_type="f16" shape="1, 128, 1, 1" offset="2102022" size="256"/>
			<output>
				<port id="0" precision="FP16">
					<dim>1</dim>
					<dim>128</dim>
					<dim>1</dim>
					<dim>1</dim>
				</port>
			</output>
		</layer>
		<layer id="104" name="Reshape_745" type="Convert" version="opset1">
			<data destination_type="f32"/>
			<rt_info>
				<attribute name="decompression" version="0"/>
			</rt_info>
			<input>
				<port id="0" precision="FP16">
					<dim>1</dim>
					<dim>128</dim>
					<dim>1</dim>
					<dim>1</dim>
				</port>
			</input>
			<output>
				<port id="1" precision="FP32">
					<dim>1</dim>
					<dim>128</dim>
					<dim>1</dim>
					<dim>1</dim>
				</port>
			</output>
		</layer>
		<layer id="105" name="onnx::Add_406" type="Add" version="opset1">
			<data auto_broadcast="numpy"/>
			<rt_info>
				<attribute name="fused_names" version="0" value="Concat_744, Reshape_745, onnx::Add_406"/>
			</rt_info>
			<input>
				<port id="0" precision="FP32">
					<dim>1</dim>
					<dim>128</dim>
					<dim>27</dim>
					<dim>48</dim>
				</port>
				<port id="1" precision="FP32">
					<dim>1</dim>
					<dim>128</dim>
					<dim>1</dim>
					<dim>1</dim>
				</port>
			</input>
			<output>
				<port id="2" precision="FP32" names="onnx::Add_406">
					<dim>1</dim>
					<dim>128</dim>
					<dim>27</dim>
					<dim>48</dim>
				</port>
			</output>
		</layer>
		<layer id="106" name="onnx::Relu_275" type="Add" version="opset1">
			<data auto_broadcast="numpy"/>
			<rt_info>
				<attribute name="fused_names" version="0" value="onnx::Relu_275"/>
			</rt_info>
			<input>
				<port id="0" precision="FP32">
					<dim>1</dim>
					<dim>128</dim>
					<dim>27</dim>
					<dim>48</dim>
				</port>
				<port id="1" precision="FP32">
					<dim>1</dim>
					<dim>128</dim>
					<dim>27</dim>
					<dim>48</dim>
				</port>
			</input>
			<output>
				<port id="2" precision="FP32" names="onnx::Relu_275">
					<dim>1</dim>
					<dim>128</dim>
					<dim>27</dim>
					<dim>48</dim>
				</port>
			</output>
		</layer>
		<layer id="107" name="input.108" type="ReLU" version="opset1">
			<rt_info>
				<attribute name="fused_names" version="0" value="input.108"/>
			</rt_info>
			<input>
				<port id="0" precision="FP32">
					<dim>1</dim>
					<dim>128</dim>
					<dim>27</dim>
					<dim>48</dim>
				</port>
			</input>
			<output>
				<port id="1" precision="FP32" names="input.108">
					<dim>1</dim>
					<dim>128</dim>
					<dim>27</dim>
					<dim>48</dim>
				</port>
			</output>
		</layer>
		<layer id="108" name="onnx::Conv_410_compressed" type="Const" version="opset1">
			<data element_type="f16" shape="128, 128, 3, 3" offset="2102278" size="294912"/>
			<output>
				<port id="0" precision="FP16">
					<dim>128</dim>
					<dim>128</dim>
					<dim>3</dim>
					<dim>3</dim>
				</port>
			</output>
		</layer>
		<layer id="109" name="onnx::Conv_410" type="Convert" version="opset1">
			<data destination_type="f32"/>
			<rt_info>
				<attribute name="decompression" version="0"/>
				<attribute name="fused_names" version="0" value="onnx::Conv_410"/>
			</rt_info>
			<input>
				<port id="0" precision="FP16">
					<dim>128</dim>
					<dim>128</dim>
					<dim>3</dim>
					<dim>3</dim>
				</port>
			</input>
			<output>
				<port id="1" precision="FP32" names="onnx::Conv_410">
					<dim>128</dim>
					<dim>128</dim>
					<dim>3</dim>
					<dim>3</dim>
				</port>
			</output>
		</layer>
		<layer id="110" name="Convolution_775" type="Convolution" version="opset1">
			<data strides="1, 1" dilations="1, 1" pads_begin="1, 1" pads_end="1, 1" auto_pad="explicit"/>
			<rt_info>
				<attribute name="fused_names" version="0" value="Convolution_775"/>
			</rt_info>
			<input>
				<port id="0" precision="FP32">
					<dim>1</dim>
					<dim>128</dim>
					<dim>27</dim>
					<dim>48</dim>
				</port>
				<port id="1" precision="FP32">
					<dim>128</dim>
					<dim>128</dim>
					<dim>3</dim>
					<dim>3</dim>
				</port>
			</input>
			<output>
				<port id="2" precision="FP32">
					<dim>1</dim>
					<dim>128</dim>
					<dim>27</dim>
					<dim>48</dim>
				</port>
			</output>
		</layer>
		<layer id="111" name="Reshape_795_compressed" type="Const" version="opset1">
			<data element_type="f16" shape="1, 128, 1, 1" offset="2397190" size="256"/>
			<output>
				<port id="0" precision="FP16">
					<dim>1</dim>
					<dim>128</dim>
					<dim>1</dim>
					<dim>1</dim>
				</port>
			</output>
		</layer>
		<layer id="112" name="Reshape_795" type="Convert" version="opset1">
			<data destination_type="f32"/>
			<rt_info>
				<attribute name="decompression" version="0"/>
			</rt_info>
			<input>
				<port id="0" precision="FP16">
					<dim>1</dim>
					<dim>128</dim>
					<dim>1</dim>
					<dim>1</dim>
				</port>
			</input>
			<output>
				<port id="1" precision="FP32">
					<dim>1</dim>
					<dim>128</dim>
					<dim>1</dim>
					<dim>1</dim>
				</port>
			</output>
		</layer>
		<layer id="113" name="input.116" type="Add" version="opset1">
			<data auto_broadcast="numpy"/>
			<rt_info>
				<attribute name="fused_names" version="0" value="Concat_794, Reshape_795, input.116"/>
			</rt_info>
			<input>
				<port id="0" precision="FP32">
					<dim>1</dim>
					<dim>128</dim>
					<dim>27</dim>
					<dim>48</dim>
				</port>
				<port id="1" precision="FP32">
					<dim>1</dim>
					<dim>128</dim>
					<dim>1</dim>
					<dim>1</dim>
				</port>
			</input>
			<output>
				<port id="2" precision="FP32" names="input.116">
					<dim>1</dim>
					<dim>128</dim>
					<dim>27</dim>
					<dim>48</dim>
				</port>
			</output>
		</layer>
		<layer id="114" name="onnx::Conv_279" type="ReLU" version="opset1">
			<rt_info>
				<attribute name="fused_names" version="0" value="onnx::Conv_279"/>
			</rt_info>
			<input>
				<port id="0" precision="FP32">
					<dim>1</dim>
					<dim>128</dim>
					<dim>27</dim>
					<dim>48</dim>
				</port>
			</input>
			<output>
				<port id="1" precision="FP32" names="onnx::Conv_279">
					<dim>1</dim>
					<dim>128</dim>
					<dim>27</dim>
					<dim>48</dim>
				</port>
			</output>
		</layer>
		<layer id="115" name="onnx::Conv_413_compressed" type="Const" version="opset1">
			<data element_type="f16" shape="128, 128, 3, 3" offset="2397446" size="294912"/>
			<output>
				<port id="0" precision="FP16">
					<dim>128</dim>
					<dim>128</dim>
					<dim>3</dim>
					<dim>3</dim>
				</port>
			</output>
		</layer>
		<layer id="116" name="onnx::Conv_413" type="Convert" version="opset1">
			<data destination_type="f32"/>
			<rt_info>
				<attribute name="decompression" version="0"/>
				<attribute name="fused_names" version="0" value="onnx::Conv_413"/>
			</rt_info>
			<input>
				<port id="0" precision="FP16">
					<dim>128</dim>
					<dim>128</dim>
					<dim>3</dim>
					<dim>3</dim>
				</port>
			</input>
			<output>
				<port id="1" precision="FP32" names="onnx::Conv_413">
					<dim>128</dim>
					<dim>128</dim>
					<dim>3</dim>
					<dim>3</dim>
				</port>
			</output>
		</layer>
		<layer id="117" name="Convolution_824" type="Convolution" version="opset1">
			<data strides="1, 1" dilations="1, 1" pads_begin="1, 1" pads_end="1, 1" auto_pad="explicit"/>
			<rt_info>
				<attribute name="fused_names" version="0" value="Convolution_824"/>
			</rt_info>
			<input>
				<port id="0" precision="FP32">
					<dim>1</dim>
					<dim>128</dim>
					<dim>27</dim>
					<dim>48</dim>
				</port>
				<port id="1" precision="FP32">
					<dim>128</dim>
					<dim>128</dim>
					<dim>3</dim>
					<dim>3</dim>
				</port>
			</input>
			<output>
				<port id="2" precision="FP32">
					<dim>1</dim>
					<dim>128</dim>
					<dim>27</dim>
					<dim>48</dim>
				</port>
			</output>
		</layer>
		<layer id="118" name="Reshape_844_compressed" type="Const" version="opset1">
			<data element_type="f16" shape="1, 128, 1, 1" offset="2692358" size="256"/>
			<output>
				<port id="0" precision="FP16">
					<dim>1</dim>
					<dim>128</dim>
					<dim>1</dim>
					<dim>1</dim>
				</port>
			</output>
		</layer>
		<layer id="119" name="Reshape_844" type="Convert" version="opset1">
			<data destination_type="f32"/>
			<rt_info>
				<attribute name="decompression" version="0"/>
			</rt_info>
			<input>
				<port id="0" precision="FP16">
					<dim>1</dim>
					<dim>128</dim>
					<dim>1</dim>
					<dim>1</dim>
				</port>
			</input>
			<output>
				<port id="1" precision="FP32">
					<dim>1</dim>
					<dim>128</dim>
					<dim>1</dim>
					<dim>1</dim>
				</port>
			</output>
		</layer>
		<layer id="120" name="onnx::Add_412" type="Add" version="opset1">
			<data auto_broadcast="numpy"/>
			<rt_info>
				<attribute name="fused_names" version="0" value="Concat_843, Reshape_844, onnx::Add_412"/>
			</rt_info>
			<input>
				<port id="0" precision="FP32">
					<dim>1</dim>
					<dim>128</dim>
					<dim>27</dim>
					<dim>48</dim>
				</port>
				<port id="1" precision="FP32">
					<dim>1</dim>
					<dim>128</dim>
					<dim>1</dim>
					<dim>1</dim>
				</port>
			</input>
			<output>
				<port id="2" precision="FP32" names="onnx::Add_412">
					<dim>1</dim>
					<dim>128</dim>
					<dim>27</dim>
					<dim>48</dim>
				</port>
			</output>
		</layer>
		<layer id="121" name="onnx::Relu_282" type="Add" version="opset1">
			<data auto_broadcast="numpy"/>
			<rt_info>
				<attribute name="fused_names" version="0" value="onnx::Relu_282"/>
			</rt_info>
			<input>
				<port id="0" precision="FP32">
					<dim>1</dim>
					<dim>128</dim>
					<dim>27</dim>
					<dim>48</dim>
				</port>
				<port id="1" precision="FP32">
					<dim>1</dim>
					<dim>128</dim>
					<dim>27</dim>
					<dim>48</dim>
				</port>
			</input>
			<output>
				<port id="2" precision="FP32" names="onnx::Relu_282">
					<dim>1</dim>
					<dim>128</dim>
					<dim>27</dim>
					<dim>48</dim>
				</port>
			</output>
		</layer>
		<layer id="122" name="input.124" type="ReLU" version="opset1">
			<rt_info>
				<attribute name="fused_names" version="0" value="input.124"/>
			</rt_info>
			<input>
				<port id="0" precision="FP32">
					<dim>1</dim>
					<dim>128</dim>
					<dim>27</dim>
					<dim>48</dim>
				</port>
			</input>
			<output>
				<port id="1" precision="FP32" names="input.124">
					<dim>1</dim>
					<dim>128</dim>
					<dim>27</dim>
					<dim>48</dim>
				</port>
			</output>
		</layer>
		<layer id="123" name="onnx::Conv_416_compressed" type="Const" version="opset1">
			<data element_type="f16" shape="256, 128, 3, 3" offset="2692614" size="589824"/>
			<output>
				<port id="0" precision="FP16">
					<dim>256</dim>
					<dim>128</dim>
					<dim>3</dim>
					<dim>3</dim>
				</port>
			</output>
		</layer>
		<layer id="124" name="onnx::Conv_416" type="Convert" version="opset1">
			<data destination_type="f32"/>
			<rt_info>
				<attribute name="decompression" version="0"/>
				<attribute name="fused_names" version="0" value="onnx::Conv_416"/>
			</rt_info>
			<input>
				<port id="0" precision="FP16">
					<dim>256</dim>
					<dim>128</dim>
					<dim>3</dim>
					<dim>3</dim>
				</port>
			</input>
			<output>
				<port id="1" precision="FP32" names="onnx::Conv_416">
					<dim>256</dim>
					<dim>128</dim>
					<dim>3</dim>
					<dim>3</dim>
				</port>
			</output>
		</layer>
		<layer id="125" name="Convolution_874" type="Convolution" version="opset1">
			<data strides="2, 2" dilations="1, 1" pads_begin="1, 1" pads_end="1, 1" auto_pad="explicit"/>
			<rt_info>
				<attribute name="fused_names" version="0" value="Convolution_874"/>
			</rt_info>
			<input>
				<port id="0" precision="FP32">
					<dim>1</dim>
					<dim>128</dim>
					<dim>27</dim>
					<dim>48</dim>
				</port>
				<port id="1" precision="FP32">
					<dim>256</dim>
					<dim>128</dim>
					<dim>3</dim>
					<dim>3</dim>
				</port>
			</input>
			<output>
				<port id="2" precision="FP32">
					<dim>1</dim>
					<dim>256</dim>
					<dim>14</dim>
					<dim>24</dim>
				</port>
			</output>
		</layer>
		<layer id="126" name="Reshape_894_compressed" type="Const" version="opset1">
			<data element_type="f16" shape="1, 256, 1, 1" offset="3282438" size="512"/>
			<output>
				<port id="0" precision="FP16">
					<dim>1</dim>
					<dim>256</dim>
					<dim>1</dim>
					<dim>1</dim>
				</port>
			</output>
		</layer>
		<layer id="127" name="Reshape_894" type="Convert" version="opset1">
			<data destination_type="f32"/>
			<rt_info>
				<attribute name="decompression" version="0"/>
			</rt_info>
			<input>
				<port id="0" precision="FP16">
					<dim>1</dim>
					<dim>256</dim>
					<dim>1</dim>
					<dim>1</dim>
				</port>
			</input>
			<output>
				<port id="1" precision="FP32">
					<dim>1</dim>
					<dim>256</dim>
					<dim>1</dim>
					<dim>1</dim>
				</port>
			</output>
		</layer>
		<layer id="128" name="input.132" type="Add" version="opset1">
			<data auto_broadcast="numpy"/>
			<rt_info>
				<attribute name="fused_names" version="0" value="Concat_893, Reshape_894, input.132"/>
			</rt_info>
			<input>
				<port id="0" precision="FP32">
					<dim>1</dim>
					<dim>256</dim>
					<dim>14</dim>
					<dim>24</dim>
				</port>
				<port id="1" precision="FP32">
					<dim>1</dim>
					<dim>256</dim>
					<dim>1</dim>
					<dim>1</dim>
				</port>
			</input>
			<output>
				<port id="2" precision="FP32" names="input.132">
					<dim>1</dim>
					<dim>256</dim>
					<dim>14</dim>
					<dim>24</dim>
				</port>
			</output>
		</layer>
		<layer id="129" name="onnx::Conv_286" type="ReLU" version="opset1">
			<rt_info>
				<attribute name="fused_names" version="0" value="onnx::Conv_286"/>
			</rt_info>
			<input>
				<port id="0" precision="FP32">
					<dim>1</dim>
					<dim>256</dim>
					<dim>14</dim>
					<dim>24</dim>
				</port>
			</input>
			<output>
				<port id="1" precision="FP32" names="onnx::Conv_286">
					<dim>1</dim>
					<dim>256</dim>
					<dim>14</dim>
					<dim>24</dim>
				</port>
			</output>
		</layer>
		<layer id="130" name="onnx::Conv_419_compressed" type="Const" version="opset1">
			<data element_type="f16" shape="256, 256, 3, 3" offset="3282950" size="1179648"/>
			<output>
				<port id="0" precision="FP16">
					<dim>256</dim>
					<dim>256</dim>
					<dim>3</dim>
					<dim>3</dim>
				</port>
			</output>
		</layer>
		<layer id="131" name="onnx::Conv_419" type="Convert" version="opset1">
			<data destination_type="f32"/>
			<rt_info>
				<attribute name="decompression" version="0"/>
				<attribute name="fused_names" version="0" value="onnx::Conv_419"/>
			</rt_info>
			<input>
				<port id="0" precision="FP16">
					<dim>256</dim>
					<dim>256</dim>
					<dim>3</dim>
					<dim>3</dim>
				</port>
			</input>
			<output>
				<port id="1" precision="FP32" names="onnx::Conv_419">
					<dim>256</dim>
					<dim>256</dim>
					<dim>3</dim>
					<dim>3</dim>
				</port>
			</output>
		</layer>
		<layer id="132" name="Convolution_923" type="Convolution" version="opset1">
			<data strides="1, 1" dilations="1, 1" pads_begin="1, 1" pads_end="1, 1" auto_pad="explicit"/>
			<rt_info>
				<attribute name="fused_names" version="0" value="Convolution_923"/>
			</rt_info>
			<input>
				<port id="0" precision="FP32">
					<dim>1</dim>
					<dim>256</dim>
					<dim>14</dim>
					<dim>24</dim>
				</port>
				<port id="1" precision="FP32">
					<dim>256</dim>
					<dim>256</dim>
					<dim>3</dim>
					<dim>3</dim>
				</port>
			</input>
			<output>
				<port id="2" precision="FP32">
					<dim>1</dim>
					<dim>256</dim>
					<dim>14</dim>
					<dim>24</dim>
				</port>
			</output>
		</layer>
		<layer id="133" name="Reshape_943_compressed" type="Const" version="opset1">
			<data element_type="f16" shape="1, 256, 1, 1" offset="4462598" size="512"/>
			<output>
				<port id="0" precision="FP16">
					<dim>1</dim>
					<dim>256</dim>
					<dim>1</dim>
					<dim>1</dim>
				</port>
			</output>
		</layer>
		<layer id="134" name="Reshape_943" type="Convert" version="opset1">
			<data destination_type="f32"/>
			<rt_info>
				<attribute name="decompression" version="0"/>
			</rt_info>
			<input>
				<port id="0" precision="FP16">
					<dim>1</dim>
					<dim>256</dim>
					<dim>1</dim>
					<dim>1</dim>
				</port>
			</input>
			<output>
				<port id="1" precision="FP32">
					<dim>1</dim>
					<dim>256</dim>
					<dim>1</dim>
					<dim>1</dim>
				</port>
			</output>
		</layer>
		<layer id="135" name="onnx::Add_418" type="Add" version="opset1">
			<data auto_broadcast="numpy"/>
			<rt_info>
				<attribute name="fused_names" version="0" value="Concat_942, Reshape_943, onnx::Add_418"/>
			</rt_info>
			<input>
				<port id="0" precision="FP32">
					<dim>1</dim>
					<dim>256</dim>
					<dim>14</dim>
					<dim>24</dim>
				</port>
				<port id="1" precision="FP32">
					<dim>1</dim>
					<dim>256</dim>
					<dim>1</dim>
					<dim>1</dim>
				</port>
			</input>
			<output>
				<port id="2" precision="FP32" names="onnx::Add_418">
					<dim>1</dim>
					<dim>256</dim>
					<dim>14</dim>
					<dim>24</dim>
				</port>
			</output>
		</layer>
		<layer id="136" name="onnx::Conv_422_compressed" type="Const" version="opset1">
			<data element_type="f16" shape="256, 128, 1, 1" offset="4463110" size="65536"/>
			<output>
				<port id="0" precision="FP16">
					<dim>256</dim>
					<dim>128</dim>
					<dim>1</dim>
					<dim>1</dim>
				</port>
			</output>
		</layer>
		<layer id="137" name="onnx::Conv_422" type="Convert" version="opset1">
			<data destination_type="f32"/>
			<rt_info>
				<attribute name="decompression" version="0"/>
				<attribute name="fused_names" version="0" value="onnx::Conv_422"/>
			</rt_info>
			<input>
				<port id="0" precision="FP16">
					<dim>256</dim>
					<dim>128</dim>
					<dim>1</dim>
					<dim>1</dim>
				</port>
			</input>
			<output>
				<port id="1" precision="FP32" names="onnx::Conv_422">
					<dim>256</dim>
					<dim>128</dim>
					<dim>1</dim>
					<dim>1</dim>
				</port>
			</output>
		</layer>
		<layer id="138" name="Convolution_971" type="Convolution" version="opset1">
			<data strides="2, 2" dilations="1, 1" pads_begin="0, 0" pads_end="0, 0" auto_pad="explicit"/>
			<rt_info>
				<attribute name="fused_names" version="0" value="Convolution_971"/>
			</rt_info>
			<input>
				<port id="0" precision="FP32">
					<dim>1</dim>
					<dim>128</dim>
					<dim>27</dim>
					<dim>48</dim>
				</port>
				<port id="1" precision="FP32">
					<dim>256</dim>
					<dim>128</dim>
					<dim>1</dim>
					<dim>1</dim>
				</port>
			</input>
			<output>
				<port id="2" precision="FP32">
					<dim>1</dim>
					<dim>256</dim>
					<dim>14</dim>
					<dim>24</dim>
				</port>
			</output>
		</layer>
		<layer id="139" name="Reshape_991_compressed" type="Const" version="opset1">
			<data element_type="f16" shape="1, 256, 1, 1" offset="4528646" size="512"/>
			<output>
				<port id="0" precision="FP16">
					<dim>1</dim>
					<dim>256</dim>
					<dim>1</dim>
					<dim>1</dim>
				</port>
			</output>
		</layer>
		<layer id="140" name="Reshape_991" type="Convert" version="opset1">
			<data destination_type="f32"/>
			<rt_info>
				<attribute name="decompression" version="0"/>
			</rt_info>
			<input>
				<port id="0" precision="FP16">
					<dim>1</dim>
					<dim>256</dim>
					<dim>1</dim>
					<dim>1</dim>
				</port>
			</input>
			<output>
				<port id="1" precision="FP32">
					<dim>1</dim>
					<dim>256</dim>
					<dim>1</dim>
					<dim>1</dim>
				</port>
			</output>
		</layer>
		<layer id="141" name="onnx::Add_421" type="Add" version="opset1">
			<data auto_broadcast="numpy"/>
			<rt_info>
				<attribute name="fused_names" version="0" value="Concat_990, Reshape_991, onnx::Add_421"/>
			</rt_info>
			<input>
				<port id="0" precision="FP32">
					<dim>1</dim>
					<dim>256</dim>
					<dim>14</dim>
					<dim>24</dim>
				</port>
				<port id="1" precision="FP32">
					<dim>1</dim>
					<dim>256</dim>
					<dim>1</dim>
					<dim>1</dim>
				</port>
			</input>
			<output>
				<port id="2" precision="FP32" names="onnx::Add_421">
					<dim>1</dim>
					<dim>256</dim>
					<dim>14</dim>
					<dim>24</dim>
				</port>
			</output>
		</layer>
		<layer id="142" name="onnx::Relu_291" type="Add" version="opset1">
			<data auto_broadcast="numpy"/>
			<rt_info>
				<attribute name="fused_names" version="0" value="onnx::Relu_291"/>
			</rt_info>
			<input>
				<port id="0" precision="FP32">
					<dim>1</dim>
					<dim>256</dim>
					<dim>14</dim>
					<dim>24</dim>
				</port>
				<port id="1" precision="FP32">
					<dim>1</dim>
					<dim>256</dim>
					<dim>14</dim>
					<dim>24</dim>
				</port>
			</input>
			<output>
				<port id="2" precision="FP32" names="onnx::Relu_291">
					<dim>1</dim>
					<dim>256</dim>
					<dim>14</dim>
					<dim>24</dim>
				</port>
			</output>
		</layer>
		<layer id="143" name="input.144" type="ReLU" version="opset1">
			<rt_info>
				<attribute name="fused_names" version="0" value="input.144"/>
			</rt_info>
			<input>
				<port id="0" precision="FP32">
					<dim>1</dim>
					<dim>256</dim>
					<dim>14</dim>
					<dim>24</dim>
				</port>
			</input>
			<output>
				<port id="1" precision="FP32" names="input.144">
					<dim>1</dim>
					<dim>256</dim>
					<dim>14</dim>
					<dim>24</dim>
				</port>
			</output>
		</layer>
		<layer id="144" name="onnx::Conv_425_compressed" type="Const" version="opset1">
			<data element_type="f16" shape="256, 256, 3, 3" offset="4529158" size="1179648"/>
			<output>
				<port id="0" precision="FP16">
					<dim>256</dim>
					<dim>256</dim>
					<dim>3</dim>
					<dim>3</dim>
				</port>
			</output>
		</layer>
		<layer id="145" name="onnx::Conv_425" type="Convert" version="opset1">
			<data destination_type="f32"/>
			<rt_info>
				<attribute name="decompression" version="0"/>
				<attribute name="fused_names" version="0" value="onnx::Conv_425"/>
			</rt_info>
			<input>
				<port id="0" precision="FP16">
					<dim>256</dim>
					<dim>256</dim>
					<dim>3</dim>
					<dim>3</dim>
				</port>
			</input>
			<output>
				<port id="1" precision="FP32" names="onnx::Conv_425">
					<dim>256</dim>
					<dim>256</dim>
					<dim>3</dim>
					<dim>3</dim>
				</port>
			</output>
		</layer>
		<layer id="146" name="Convolution_1021" type="Convolution" version="opset1">
			<data strides="1, 1" dilations="1, 1" pads_begin="1, 1" pads_end="1, 1" auto_pad="explicit"/>
			<rt_info>
				<attribute name="fused_names" version="0" value="Convolution_1021"/>
			</rt_info>
			<input>
				<port id="0" precision="FP32">
					<dim>1</dim>
					<dim>256</dim>
					<dim>14</dim>
					<dim>24</dim>
				</port>
				<port id="1" precision="FP32">
					<dim>256</dim>
					<dim>256</dim>
					<dim>3</dim>
					<dim>3</dim>
				</port>
			</input>
			<output>
				<port id="2" precision="FP32">
					<dim>1</dim>
					<dim>256</dim>
					<dim>14</dim>
					<dim>24</dim>
				</port>
			</output>
		</layer>
		<layer id="147" name="Reshape_1041_compressed" type="Const" version="opset1">
			<data element_type="f16" shape="1, 256, 1, 1" offset="5708806" size="512"/>
			<output>
				<port id="0" precision="FP16">
					<dim>1</dim>
					<dim>256</dim>
					<dim>1</dim>
					<dim>1</dim>
				</port>
			</output>
		</layer>
		<layer id="148" name="Reshape_1041" type="Convert" version="opset1">
			<data destination_type="f32"/>
			<rt_info>
				<attribute name="decompression" version="0"/>
			</rt_info>
			<input>
				<port id="0" precision="FP16">
					<dim>1</dim>
					<dim>256</dim>
					<dim>1</dim>
					<dim>1</dim>
				</port>
			</input>
			<output>
				<port id="1" precision="FP32">
					<dim>1</dim>
					<dim>256</dim>
					<dim>1</dim>
					<dim>1</dim>
				</port>
			</output>
		</layer>
		<layer id="149" name="input.152" type="Add" version="opset1">
			<data auto_broadcast="numpy"/>
			<rt_info>
				<attribute name="fused_names" version="0" value="Concat_1040, Reshape_1041, input.152"/>
			</rt_info>
			<input>
				<port id="0" precision="FP32">
					<dim>1</dim>
					<dim>256</dim>
					<dim>14</dim>
					<dim>24</dim>
				</port>
				<port id="1" precision="FP32">
					<dim>1</dim>
					<dim>256</dim>
					<dim>1</dim>
					<dim>1</dim>
				</port>
			</input>
			<output>
				<port id="2" precision="FP32" names="input.152">
					<dim>1</dim>
					<dim>256</dim>
					<dim>14</dim>
					<dim>24</dim>
				</port>
			</output>
		</layer>
		<layer id="150" name="onnx::Conv_295" type="ReLU" version="opset1">
			<rt_info>
				<attribute name="fused_names" version="0" value="onnx::Conv_295"/>
			</rt_info>
			<input>
				<port id="0" precision="FP32">
					<dim>1</dim>
					<dim>256</dim>
					<dim>14</dim>
					<dim>24</dim>
				</port>
			</input>
			<output>
				<port id="1" precision="FP32" names="onnx::Conv_295">
					<dim>1</dim>
					<dim>256</dim>
					<dim>14</dim>
					<dim>24</dim>
				</port>
			</output>
		</layer>
		<layer id="151" name="onnx::Conv_428_compressed" type="Const" version="opset1">
			<data element_type="f16" shape="256, 256, 3, 3" offset="5709318" size="1179648"/>
			<output>
				<port id="0" precision="FP16">
					<dim>256</dim>
					<dim>256</dim>
					<dim>3</dim>
					<dim>3</dim>
				</port>
			</output>
		</layer>
		<layer id="152" name="onnx::Conv_428" type="Convert" version="opset1">
			<data destination_type="f32"/>
			<rt_info>
				<attribute name="decompression" version="0"/>
				<attribute name="fused_names" version="0" value="onnx::Conv_428"/>
			</rt_info>
			<input>
				<port id="0" precision="FP16">
					<dim>256</dim>
					<dim>256</dim>
					<dim>3</dim>
					<dim>3</dim>
				</port>
			</input>
			<output>
				<port id="1" precision="FP32" names="onnx::Conv_428">
					<dim>256</dim>
					<dim>256</dim>
					<dim>3</dim>
					<dim>3</dim>
				</port>
			</output>
		</layer>
		<layer id="153" name="Convolution_1070" type="Convolution" version="opset1">
			<data strides="1, 1" dilations="1, 1" pads_begin="1, 1" pads_end="1, 1" auto_pad="explicit"/>
			<rt_info>
				<attribute name="fused_names" version="0" value="Convolution_1070"/>
			</rt_info>
			<input>
				<port id="0" precision="FP32">
					<dim>1</dim>
					<dim>256</dim>
					<dim>14</dim>
					<dim>24</dim>
				</port>
				<port id="1" precision="FP32">
					<dim>256</dim>
					<dim>256</dim>
					<dim>3</dim>
					<dim>3</dim>
				</port>
			</input>
			<output>
				<port id="2" precision="FP32">
					<dim>1</dim>
					<dim>256</dim>
					<dim>14</dim>
					<dim>24</dim>
				</port>
			</output>
		</layer>
		<layer id="154" name="Reshape_1090_compressed" type="Const" version="opset1">
			<data element_type="f16" shape="1, 256, 1, 1" offset="6888966" size="512"/>
			<output>
				<port id="0" precision="FP16">
					<dim>1</dim>
					<dim>256</dim>
					<dim>1</dim>
					<dim>1</dim>
				</port>
			</output>
		</layer>
		<layer id="155" name="Reshape_1090" type="Convert" version="opset1">
			<data destination_type="f32"/>
			<rt_info>
				<attribute name="decompression" version="0"/>
			</rt_info>
			<input>
				<port id="0" precision="FP16">
					<dim>1</dim>
					<dim>256</dim>
					<dim>1</dim>
					<dim>1</dim>
				</port>
			</input>
			<output>
				<port id="1" precision="FP32">
					<dim>1</dim>
					<dim>256</dim>
					<dim>1</dim>
					<dim>1</dim>
				</port>
			</output>
		</layer>
		<layer id="156" name="onnx::Add_427" type="Add" version="opset1">
			<data auto_broadcast="numpy"/>
			<rt_info>
				<attribute name="fused_names" version="0" value="Concat_1089, Reshape_1090, onnx::Add_427"/>
			</rt_info>
			<input>
				<port id="0" precision="FP32">
					<dim>1</dim>
					<dim>256</dim>
					<dim>14</dim>
					<dim>24</dim>
				</port>
				<port id="1" precision="FP32">
					<dim>1</dim>
					<dim>256</dim>
					<dim>1</dim>
					<dim>1</dim>
				</port>
			</input>
			<output>
				<port id="2" precision="FP32" names="onnx::Add_427">
					<dim>1</dim>
					<dim>256</dim>
					<dim>14</dim>
					<dim>24</dim>
				</port>
			</output>
		</layer>
		<layer id="157" name="onnx::Relu_298" type="Add" version="opset1">
			<data auto_broadcast="numpy"/>
			<rt_info>
				<attribute name="fused_names" version="0" value="onnx::Relu_298"/>
			</rt_info>
			<input>
				<port id="0" precision="FP32">
					<dim>1</dim>
					<dim>256</dim>
					<dim>14</dim>
					<dim>24</dim>
				</port>
				<port id="1" precision="FP32">
					<dim>1</dim>
					<dim>256</dim>
					<dim>14</dim>
					<dim>24</dim>
				</port>
			</input>
			<output>
				<port id="2" precision="FP32" names="onnx::Relu_298">
					<dim>1</dim>
					<dim>256</dim>
					<dim>14</dim>
					<dim>24</dim>
				</port>
			</output>
		</layer>
		<layer id="158" name="input.160" type="ReLU" version="opset1">
			<rt_info>
				<attribute name="fused_names" version="0" value="input.160"/>
			</rt_info>
			<input>
				<port id="0" precision="FP32">
					<dim>1</dim>
					<dim>256</dim>
					<dim>14</dim>
					<dim>24</dim>
				</port>
			</input>
			<output>
				<port id="1" precision="FP32" names="input.160">
					<dim>1</dim>
					<dim>256</dim>
					<dim>14</dim>
					<dim>24</dim>
				</port>
			</output>
		</layer>
		<layer id="159" name="onnx::Conv_431_compressed" type="Const" version="opset1">
			<data element_type="f16" shape="256, 256, 3, 3" offset="6889478" size="1179648"/>
			<output>
				<port id="0" precision="FP16">
					<dim>256</dim>
					<dim>256</dim>
					<dim>3</dim>
					<dim>3</dim>
				</port>
			</output>
		</layer>
		<layer id="160" name="onnx::Conv_431" type="Convert" version="opset1">
			<data destination_type="f32"/>
			<rt_info>
				<attribute name="decompression" version="0"/>
				<attribute name="fused_names" version="0" value="onnx::Conv_431"/>
			</rt_info>
			<input>
				<port id="0" precision="FP16">
					<dim>256</dim>
					<dim>256</dim>
					<dim>3</dim>
					<dim>3</dim>
				</port>
			</input>
			<output>
				<port id="1" precision="FP32" names="onnx::Conv_431">
					<dim>256</dim>
					<dim>256</dim>
					<dim>3</dim>
					<dim>3</dim>
				</port>
			</output>
		</layer>
		<layer id="161" name="Convolution_1120" type="Convolution" version="opset1">
			<data strides="1, 1" dilations="1, 1" pads_begin="1, 1" pads_end="1, 1" auto_pad="explicit"/>
			<rt_info>
				<attribute name="fused_names" version="0" value="Convolution_1120"/>
			</rt_info>
			<input>
				<port id="0" precision="FP32">
					<dim>1</dim>
					<dim>256</dim>
					<dim>14</dim>
					<dim>24</dim>
				</port>
				<port id="1" precision="FP32">
					<dim>256</dim>
					<dim>256</dim>
					<dim>3</dim>
					<dim>3</dim>
				</port>
			</input>
			<output>
				<port id="2" precision="FP32">
					<dim>1</dim>
					<dim>256</dim>
					<dim>14</dim>
					<dim>24</dim>
				</port>
			</output>
		</layer>
		<layer id="162" name="Reshape_1140_compressed" type="Const" version="opset1">
			<data element_type="f16" shape="1, 256, 1, 1" offset="8069126" size="512"/>
			<output>
				<port id="0" precision="FP16">
					<dim>1</dim>
					<dim>256</dim>
					<dim>1</dim>
					<dim>1</dim>
				</port>
			</output>
		</layer>
		<layer id="163" name="Reshape_1140" type="Convert" version="opset1">
			<data destination_type="f32"/>
			<rt_info>
				<attribute name="decompression" version="0"/>
			</rt_info>
			<input>
				<port id="0" precision="FP16">
					<dim>1</dim>
					<dim>256</dim>
					<dim>1</dim>
					<dim>1</dim>
				</port>
			</input>
			<output>
				<port id="1" precision="FP32">
					<dim>1</dim>
					<dim>256</dim>
					<dim>1</dim>
					<dim>1</dim>
				</port>
			</output>
		</layer>
		<layer id="164" name="input.168" type="Add" version="opset1">
			<data auto_broadcast="numpy"/>
			<rt_info>
				<attribute name="fused_names" version="0" value="Concat_1139, Reshape_1140, input.168"/>
			</rt_info>
			<input>
				<port id="0" precision="FP32">
					<dim>1</dim>
					<dim>256</dim>
					<dim>14</dim>
					<dim>24</dim>
				</port>
				<port id="1" precision="FP32">
					<dim>1</dim>
					<dim>256</dim>
					<dim>1</dim>
					<dim>1</dim>
				</port>
			</input>
			<output>
				<port id="2" precision="FP32" names="input.168">
					<dim>1</dim>
					<dim>256</dim>
					<dim>14</dim>
					<dim>24</dim>
				</port>
			</output>
		</layer>
		<layer id="165" name="onnx::Conv_302" type="ReLU" version="opset1">
			<rt_info>
				<attribute name="fused_names" version="0" value="onnx::Conv_302"/>
			</rt_info>
			<input>
				<port id="0" precision="FP32">
					<dim>1</dim>
					<dim>256</dim>
					<dim>14</dim>
					<dim>24</dim>
				</port>
			</input>
			<output>
				<port id="1" precision="FP32" names="onnx::Conv_302">
					<dim>1</dim>
					<dim>256</dim>
					<dim>14</dim>
					<dim>24</dim>
				</port>
			</output>
		</layer>
		<layer id="166" name="onnx::Conv_434_compressed" type="Const" version="opset1">
			<data element_type="f16" shape="256, 256, 3, 3" offset="8069638" size="1179648"/>
			<output>
				<port id="0" precision="FP16">
					<dim>256</dim>
					<dim>256</dim>
					<dim>3</dim>
					<dim>3</dim>
				</port>
			</output>
		</layer>
		<layer id="167" name="onnx::Conv_434" type="Convert" version="opset1">
			<data destination_type="f32"/>
			<rt_info>
				<attribute name="decompression" version="0"/>
				<attribute name="fused_names" version="0" value="onnx::Conv_434"/>
			</rt_info>
			<input>
				<port id="0" precision="FP16">
					<dim>256</dim>
					<dim>256</dim>
					<dim>3</dim>
					<dim>3</dim>
				</port>
			</input>
			<output>
				<port id="1" precision="FP32" names="onnx::Conv_434">
					<dim>256</dim>
					<dim>256</dim>
					<dim>3</dim>
					<dim>3</dim>
				</port>
			</output>
		</layer>
		<layer id="168" name="Convolution_1169" type="Convolution" version="opset1">
			<data strides="1, 1" dilations="1, 1" pads_begin="1, 1" pads_end="1, 1" auto_pad="explicit"/>
			<rt_info>
				<attribute name="fused_names" version="0" value="Convolution_1169"/>
			</rt_info>
			<input>
				<port id="0" precision="FP32">
					<dim>1</dim>
					<dim>256</dim>
					<dim>14</dim>
					<dim>24</dim>
				</port>
				<port id="1" precision="FP32">
					<dim>256</dim>
					<dim>256</dim>
					<dim>3</dim>
					<dim>3</dim>
				</port>
			</input>
			<output>
				<port id="2" precision="FP32">
					<dim>1</dim>
					<dim>256</dim>
					<dim>14</dim>
					<dim>24</dim>
				</port>
			</output>
		</layer>
		<layer id="169" name="Reshape_1189_compressed" type="Const" version="opset1">
			<data element_type="f16" shape="1, 256, 1, 1" offset="9249286" size="512"/>
			<output>
				<port id="0" precision="FP16">
					<dim>1</dim>
					<dim>256</dim>
					<dim>1</dim>
					<dim>1</dim>
				</port>
			</output>
		</layer>
		<layer id="170" name="Reshape_1189" type="Convert" version="opset1">
			<data destination_type="f32"/>
			<rt_info>
				<attribute name="decompression" version="0"/>
			</rt_info>
			<input>
				<port id="0" precision="FP16">
					<dim>1</dim>
					<dim>256</dim>
					<dim>1</dim>
					<dim>1</dim>
				</port>
			</input>
			<output>
				<port id="1" precision="FP32">
					<dim>1</dim>
					<dim>256</dim>
					<dim>1</dim>
					<dim>1</dim>
				</port>
			</output>
		</layer>
		<layer id="171" name="onnx::Add_433" type="Add" version="opset1">
			<data auto_broadcast="numpy"/>
			<rt_info>
				<attribute name="fused_names" version="0" value="Concat_1188, Reshape_1189, onnx::Add_433"/>
			</rt_info>
			<input>
				<port id="0" precision="FP32">
					<dim>1</dim>
					<dim>256</dim>
					<dim>14</dim>
					<dim>24</dim>
				</port>
				<port id="1" precision="FP32">
					<dim>1</dim>
					<dim>256</dim>
					<dim>1</dim>
					<dim>1</dim>
				</port>
			</input>
			<output>
				<port id="2" precision="FP32" names="onnx::Add_433">
					<dim>1</dim>
					<dim>256</dim>
					<dim>14</dim>
					<dim>24</dim>
				</port>
			</output>
		</layer>
		<layer id="172" name="onnx::Relu_305" type="Add" version="opset1">
			<data auto_broadcast="numpy"/>
			<rt_info>
				<attribute name="fused_names" version="0" value="onnx::Relu_305"/>
			</rt_info>
			<input>
				<port id="0" precision="FP32">
					<dim>1</dim>
					<dim>256</dim>
					<dim>14</dim>
					<dim>24</dim>
				</port>
				<port id="1" precision="FP32">
					<dim>1</dim>
					<dim>256</dim>
					<dim>14</dim>
					<dim>24</dim>
				</port>
			</input>
			<output>
				<port id="2" precision="FP32" names="onnx::Relu_305">
					<dim>1</dim>
					<dim>256</dim>
					<dim>14</dim>
					<dim>24</dim>
				</port>
			</output>
		</layer>
		<layer id="173" name="input.176" type="ReLU" version="opset1">
			<rt_info>
				<attribute name="fused_names" version="0" value="input.176"/>
			</rt_info>
			<input>
				<port id="0" precision="FP32">
					<dim>1</dim>
					<dim>256</dim>
					<dim>14</dim>
					<dim>24</dim>
				</port>
			</input>
			<output>
				<port id="1" precision="FP32" names="input.176">
					<dim>1</dim>
					<dim>256</dim>
					<dim>14</dim>
					<dim>24</dim>
				</port>
			</output>
		</layer>
		<layer id="174" name="onnx::Conv_437_compressed" type="Const" version="opset1">
			<data element_type="f16" shape="256, 256, 3, 3" offset="9249798" size="1179648"/>
			<output>
				<port id="0" precision="FP16">
					<dim>256</dim>
					<dim>256</dim>
					<dim>3</dim>
					<dim>3</dim>
				</port>
			</output>
		</layer>
		<layer id="175" name="onnx::Conv_437" type="Convert" version="opset1">
			<data destination_type="f32"/>
			<rt_info>
				<attribute name="decompression" version="0"/>
				<attribute name="fused_names" version="0" value="onnx::Conv_437"/>
			</rt_info>
			<input>
				<port id="0" precision="FP16">
					<dim>256</dim>
					<dim>256</dim>
					<dim>3</dim>
					<dim>3</dim>
				</port>
			</input>
			<output>
				<port id="1" precision="FP32" names="onnx::Conv_437">
					<dim>256</dim>
					<dim>256</dim>
					<dim>3</dim>
					<dim>3</dim>
				</port>
			</output>
		</layer>
		<layer id="176" name="Convolution_1219" type="Convolution" version="opset1">
			<data strides="1, 1" dilations="1, 1" pads_begin="1, 1" pads_end="1, 1" auto_pad="explicit"/>
			<rt_info>
				<attribute name="fused_names" version="0" value="Convolution_1219"/>
			</rt_info>
			<input>
				<port id="0" precision="FP32">
					<dim>1</dim>
					<dim>256</dim>
					<dim>14</dim>
					<dim>24</dim>
				</port>
				<port id="1" precision="FP32">
					<dim>256</dim>
					<dim>256</dim>
					<dim>3</dim>
					<dim>3</dim>
				</port>
			</input>
			<output>
				<port id="2" precision="FP32">
					<dim>1</dim>
					<dim>256</dim>
					<dim>14</dim>
					<dim>24</dim>
				</port>
			</output>
		</layer>
		<layer id="177" name="Reshape_1239_compressed" type="Const" version="opset1">
			<data element_type="f16" shape="1, 256, 1, 1" offset="10429446" size="512"/>
			<output>
				<port id="0" precision="FP16">
					<dim>1</dim>
					<dim>256</dim>
					<dim>1</dim>
					<dim>1</dim>
				</port>
			</output>
		</layer>
		<layer id="178" name="Reshape_1239" type="Convert" version="opset1">
			<data destination_type="f32"/>
			<rt_info>
				<attribute name="decompression" version="0"/>
			</rt_info>
			<input>
				<port id="0" precision="FP16">
					<dim>1</dim>
					<dim>256</dim>
					<dim>1</dim>
					<dim>1</dim>
				</port>
			</input>
			<output>
				<port id="1" precision="FP32">
					<dim>1</dim>
					<dim>256</dim>
					<dim>1</dim>
					<dim>1</dim>
				</port>
			</output>
		</layer>
		<layer id="179" name="input.184" type="Add" version="opset1">
			<data auto_broadcast="numpy"/>
			<rt_info>
				<attribute name="fused_names" version="0" value="Concat_1238, Reshape_1239, input.184"/>
			</rt_info>
			<input>
				<port id="0" precision="FP32">
					<dim>1</dim>
					<dim>256</dim>
					<dim>14</dim>
					<dim>24</dim>
				</port>
				<port id="1" precision="FP32">
					<dim>1</dim>
					<dim>256</dim>
					<dim>1</dim>
					<dim>1</dim>
				</port>
			</input>
			<output>
				<port id="2" precision="FP32" names="input.184">
					<dim>1</dim>
					<dim>256</dim>
					<dim>14</dim>
					<dim>24</dim>
				</port>
			</output>
		</layer>
		<layer id="180" name="onnx::Conv_309" type="ReLU" version="opset1">
			<rt_info>
				<attribute name="fused_names" version="0" value="onnx::Conv_309"/>
			</rt_info>
			<input>
				<port id="0" precision="FP32">
					<dim>1</dim>
					<dim>256</dim>
					<dim>14</dim>
					<dim>24</dim>
				</port>
			</input>
			<output>
				<port id="1" precision="FP32" names="onnx::Conv_309">
					<dim>1</dim>
					<dim>256</dim>
					<dim>14</dim>
					<dim>24</dim>
				</port>
			</output>
		</layer>
		<layer id="181" name="onnx::Conv_440_compressed" type="Const" version="opset1">
			<data element_type="f16" shape="256, 256, 3, 3" offset="10429958" size="1179648"/>
			<output>
				<port id="0" precision="FP16">
					<dim>256</dim>
					<dim>256</dim>
					<dim>3</dim>
					<dim>3</dim>
				</port>
			</output>
		</layer>
		<layer id="182" name="onnx::Conv_440" type="Convert" version="opset1">
			<data destination_type="f32"/>
			<rt_info>
				<attribute name="decompression" version="0"/>
				<attribute name="fused_names" version="0" value="onnx::Conv_440"/>
			</rt_info>
			<input>
				<port id="0" precision="FP16">
					<dim>256</dim>
					<dim>256</dim>
					<dim>3</dim>
					<dim>3</dim>
				</port>
			</input>
			<output>
				<port id="1" precision="FP32" names="onnx::Conv_440">
					<dim>256</dim>
					<dim>256</dim>
					<dim>3</dim>
					<dim>3</dim>
				</port>
			</output>
		</layer>
		<layer id="183" name="Convolution_1268" type="Convolution" version="opset1">
			<data strides="1, 1" dilations="1, 1" pads_begin="1, 1" pads_end="1, 1" auto_pad="explicit"/>
			<rt_info>
				<attribute name="fused_names" version="0" value="Convolution_1268"/>
			</rt_info>
			<input>
				<port id="0" precision="FP32">
					<dim>1</dim>
					<dim>256</dim>
					<dim>14</dim>
					<dim>24</dim>
				</port>
				<port id="1" precision="FP32">
					<dim>256</dim>
					<dim>256</dim>
					<dim>3</dim>
					<dim>3</dim>
				</port>
			</input>
			<output>
				<port id="2" precision="FP32">
					<dim>1</dim>
					<dim>256</dim>
					<dim>14</dim>
					<dim>24</dim>
				</port>
			</output>
		</layer>
		<layer id="184" name="Reshape_1288_compressed" type="Const" version="opset1">
			<data element_type="f16" shape="1, 256, 1, 1" offset="11609606" size="512"/>
			<output>
				<port id="0" precision="FP16">
					<dim>1</dim>
					<dim>256</dim>
					<dim>1</dim>
					<dim>1</dim>
				</port>
			</output>
		</layer>
		<layer id="185" name="Reshape_1288" type="Convert" version="opset1">
			<data destination_type="f32"/>
			<rt_info>
				<attribute name="decompression" version="0"/>
			</rt_info>
			<input>
				<port id="0" precision="FP16">
					<dim>1</dim>
					<dim>256</dim>
					<dim>1</dim>
					<dim>1</dim>
				</port>
			</input>
			<output>
				<port id="1" precision="FP32">
					<dim>1</dim>
					<dim>256</dim>
					<dim>1</dim>
					<dim>1</dim>
				</port>
			</output>
		</layer>
		<layer id="186" name="onnx::Add_439" type="Add" version="opset1">
			<data auto_broadcast="numpy"/>
			<rt_info>
				<attribute name="fused_names" version="0" value="Concat_1287, Reshape_1288, onnx::Add_439"/>
			</rt_info>
			<input>
				<port id="0" precision="FP32">
					<dim>1</dim>
					<dim>256</dim>
					<dim>14</dim>
					<dim>24</dim>
				</port>
				<port id="1" precision="FP32">
					<dim>1</dim>
					<dim>256</dim>
					<dim>1</dim>
					<dim>1</dim>
				</port>
			</input>
			<output>
				<port id="2" precision="FP32" names="onnx::Add_439">
					<dim>1</dim>
					<dim>256</dim>
					<dim>14</dim>
					<dim>24</dim>
				</port>
			</output>
		</layer>
		<layer id="187" name="onnx::Relu_312" type="Add" version="opset1">
			<data auto_broadcast="numpy"/>
			<rt_info>
				<attribute name="fused_names" version="0" value="onnx::Relu_312"/>
			</rt_info>
			<input>
				<port id="0" precision="FP32">
					<dim>1</dim>
					<dim>256</dim>
					<dim>14</dim>
					<dim>24</dim>
				</port>
				<port id="1" precision="FP32">
					<dim>1</dim>
					<dim>256</dim>
					<dim>14</dim>
					<dim>24</dim>
				</port>
			</input>
			<output>
				<port id="2" precision="FP32" names="onnx::Relu_312">
					<dim>1</dim>
					<dim>256</dim>
					<dim>14</dim>
					<dim>24</dim>
				</port>
			</output>
		</layer>
		<layer id="188" name="input.192" type="ReLU" version="opset1">
			<rt_info>
				<attribute name="fused_names" version="0" value="input.192"/>
			</rt_info>
			<input>
				<port id="0" precision="FP32">
					<dim>1</dim>
					<dim>256</dim>
					<dim>14</dim>
					<dim>24</dim>
				</port>
			</input>
			<output>
				<port id="1" precision="FP32" names="input.192">
					<dim>1</dim>
					<dim>256</dim>
					<dim>14</dim>
					<dim>24</dim>
				</port>
			</output>
		</layer>
		<layer id="189" name="onnx::Conv_443_compressed" type="Const" version="opset1">
			<data element_type="f16" shape="256, 256, 3, 3" offset="11610118" size="1179648"/>
			<output>
				<port id="0" precision="FP16">
					<dim>256</dim>
					<dim>256</dim>
					<dim>3</dim>
					<dim>3</dim>
				</port>
			</output>
		</layer>
		<layer id="190" name="onnx::Conv_443" type="Convert" version="opset1">
			<data destination_type="f32"/>
			<rt_info>
				<attribute name="decompression" version="0"/>
				<attribute name="fused_names" version="0" value="onnx::Conv_443"/>
			</rt_info>
			<input>
				<port id="0" precision="FP16">
					<dim>256</dim>
					<dim>256</dim>
					<dim>3</dim>
					<dim>3</dim>
				</port>
			</input>
			<output>
				<port id="1" precision="FP32" names="onnx::Conv_443">
					<dim>256</dim>
					<dim>256</dim>
					<dim>3</dim>
					<dim>3</dim>
				</port>
			</output>
		</layer>
		<layer id="191" name="Convolution_1318" type="Convolution" version="opset1">
			<data strides="1, 1" dilations="1, 1" pads_begin="1, 1" pads_end="1, 1" auto_pad="explicit"/>
			<rt_info>
				<attribute name="fused_names" version="0" value="Convolution_1318"/>
			</rt_info>
			<input>
				<port id="0" precision="FP32">
					<dim>1</dim>
					<dim>256</dim>
					<dim>14</dim>
					<dim>24</dim>
				</port>
				<port id="1" precision="FP32">
					<dim>256</dim>
					<dim>256</dim>
					<dim>3</dim>
					<dim>3</dim>
				</port>
			</input>
			<output>
				<port id="2" precision="FP32">
					<dim>1</dim>
					<dim>256</dim>
					<dim>14</dim>
					<dim>24</dim>
				</port>
			</output>
		</layer>
		<layer id="192" name="Reshape_1338_compressed" type="Const" version="opset1">
			<data element_type="f16" shape="1, 256, 1, 1" offset="12789766" size="512"/>
			<output>
				<port id="0" precision="FP16">
					<dim>1</dim>
					<dim>256</dim>
					<dim>1</dim>
					<dim>1</dim>
				</port>
			</output>
		</layer>
		<layer id="193" name="Reshape_1338" type="Convert" version="opset1">
			<data destination_type="f32"/>
			<rt_info>
				<attribute name="decompression" version="0"/>
			</rt_info>
			<input>
				<port id="0" precision="FP16">
					<dim>1</dim>
					<dim>256</dim>
					<dim>1</dim>
					<dim>1</dim>
				</port>
			</input>
			<output>
				<port id="1" precision="FP32">
					<dim>1</dim>
					<dim>256</dim>
					<dim>1</dim>
					<dim>1</dim>
				</port>
			</output>
		</layer>
		<layer id="194" name="input.200" type="Add" version="opset1">
			<data auto_broadcast="numpy"/>
			<rt_info>
				<attribute name="fused_names" version="0" value="Concat_1337, Reshape_1338, input.200"/>
			</rt_info>
			<input>
				<port id="0" precision="FP32">
					<dim>1</dim>
					<dim>256</dim>
					<dim>14</dim>
					<dim>24</dim>
				</port>
				<port id="1" precision="FP32">
					<dim>1</dim>
					<dim>256</dim>
					<dim>1</dim>
					<dim>1</dim>
				</port>
			</input>
			<output>
				<port id="2" precision="FP32" names="input.200">
					<dim>1</dim>
					<dim>256</dim>
					<dim>14</dim>
					<dim>24</dim>
				</port>
			</output>
		</layer>
		<layer id="195" name="onnx::Conv_316" type="ReLU" version="opset1">
			<rt_info>
				<attribute name="fused_names" version="0" value="onnx::Conv_316"/>
			</rt_info>
			<input>
				<port id="0" precision="FP32">
					<dim>1</dim>
					<dim>256</dim>
					<dim>14</dim>
					<dim>24</dim>
				</port>
			</input>
			<output>
				<port id="1" precision="FP32" names="onnx::Conv_316">
					<dim>1</dim>
					<dim>256</dim>
					<dim>14</dim>
					<dim>24</dim>
				</port>
			</output>
		</layer>
		<layer id="196" name="onnx::Conv_446_compressed" type="Const" version="opset1">
			<data element_type="f16" shape="256, 256, 3, 3" offset="12790278" size="1179648"/>
			<output>
				<port id="0" precision="FP16">
					<dim>256</dim>
					<dim>256</dim>
					<dim>3</dim>
					<dim>3</dim>
				</port>
			</output>
		</layer>
		<layer id="197" name="onnx::Conv_446" type="Convert" version="opset1">
			<data destination_type="f32"/>
			<rt_info>
				<attribute name="decompression" version="0"/>
				<attribute name="fused_names" version="0" value="onnx::Conv_446"/>
			</rt_info>
			<input>
				<port id="0" precision="FP16">
					<dim>256</dim>
					<dim>256</dim>
					<dim>3</dim>
					<dim>3</dim>
				</port>
			</input>
			<output>
				<port id="1" precision="FP32" names="onnx::Conv_446">
					<dim>256</dim>
					<dim>256</dim>
					<dim>3</dim>
					<dim>3</dim>
				</port>
			</output>
		</layer>
		<layer id="198" name="Convolution_1367" type="Convolution" version="opset1">
			<data strides="1, 1" dilations="1, 1" pads_begin="1, 1" pads_end="1, 1" auto_pad="explicit"/>
			<rt_info>
				<attribute name="fused_names" version="0" value="Convolution_1367"/>
			</rt_info>
			<input>
				<port id="0" precision="FP32">
					<dim>1</dim>
					<dim>256</dim>
					<dim>14</dim>
					<dim>24</dim>
				</port>
				<port id="1" precision="FP32">
					<dim>256</dim>
					<dim>256</dim>
					<dim>3</dim>
					<dim>3</dim>
				</port>
			</input>
			<output>
				<port id="2" precision="FP32">
					<dim>1</dim>
					<dim>256</dim>
					<dim>14</dim>
					<dim>24</dim>
				</port>
			</output>
		</layer>
		<layer id="199" name="Reshape_1387_compressed" type="Const" version="opset1">
			<data element_type="f16" shape="1, 256, 1, 1" offset="13969926" size="512"/>
			<output>
				<port id="0" precision="FP16">
					<dim>1</dim>
					<dim>256</dim>
					<dim>1</dim>
					<dim>1</dim>
				</port>
			</output>
		</layer>
		<layer id="200" name="Reshape_1387" type="Convert" version="opset1">
			<data destination_type="f32"/>
			<rt_info>
				<attribute name="decompression" version="0"/>
			</rt_info>
			<input>
				<port id="0" precision="FP16">
					<dim>1</dim>
					<dim>256</dim>
					<dim>1</dim>
					<dim>1</dim>
				</port>
			</input>
			<output>
				<port id="1" precision="FP32">
					<dim>1</dim>
					<dim>256</dim>
					<dim>1</dim>
					<dim>1</dim>
				</port>
			</output>
		</layer>
		<layer id="201" name="onnx::Add_445" type="Add" version="opset1">
			<data auto_broadcast="numpy"/>
			<rt_info>
				<attribute name="fused_names" version="0" value="Concat_1386, Reshape_1387, onnx::Add_445"/>
			</rt_info>
			<input>
				<port id="0" precision="FP32">
					<dim>1</dim>
					<dim>256</dim>
					<dim>14</dim>
					<dim>24</dim>
				</port>
				<port id="1" precision="FP32">
					<dim>1</dim>
					<dim>256</dim>
					<dim>1</dim>
					<dim>1</dim>
				</port>
			</input>
			<output>
				<port id="2" precision="FP32" names="onnx::Add_445">
					<dim>1</dim>
					<dim>256</dim>
					<dim>14</dim>
					<dim>24</dim>
				</port>
			</output>
		</layer>
		<layer id="202" name="onnx::Relu_319" type="Add" version="opset1">
			<data auto_broadcast="numpy"/>
			<rt_info>
				<attribute name="fused_names" version="0" value="onnx::Relu_319"/>
			</rt_info>
			<input>
				<port id="0" precision="FP32">
					<dim>1</dim>
					<dim>256</dim>
					<dim>14</dim>
					<dim>24</dim>
				</port>
				<port id="1" precision="FP32">
					<dim>1</dim>
					<dim>256</dim>
					<dim>14</dim>
					<dim>24</dim>
				</port>
			</input>
			<output>
				<port id="2" precision="FP32" names="onnx::Relu_319">
					<dim>1</dim>
					<dim>256</dim>
					<dim>14</dim>
					<dim>24</dim>
				</port>
			</output>
		</layer>
		<layer id="203" name="input.208" type="ReLU" version="opset1">
			<rt_info>
				<attribute name="fused_names" version="0" value="input.208"/>
			</rt_info>
			<input>
				<port id="0" precision="FP32">
					<dim>1</dim>
					<dim>256</dim>
					<dim>14</dim>
					<dim>24</dim>
				</port>
			</input>
			<output>
				<port id="1" precision="FP32" names="input.208">
					<dim>1</dim>
					<dim>256</dim>
					<dim>14</dim>
					<dim>24</dim>
				</port>
			</output>
		</layer>
		<layer id="204" name="onnx::Conv_449_compressed" type="Const" version="opset1">
			<data element_type="f16" shape="256, 256, 3, 3" offset="13970438" size="1179648"/>
			<output>
				<port id="0" precision="FP16">
					<dim>256</dim>
					<dim>256</dim>
					<dim>3</dim>
					<dim>3</dim>
				</port>
			</output>
		</layer>
		<layer id="205" name="onnx::Conv_449" type="Convert" version="opset1">
			<data destination_type="f32"/>
			<rt_info>
				<attribute name="decompression" version="0"/>
				<attribute name="fused_names" version="0" value="onnx::Conv_449"/>
			</rt_info>
			<input>
				<port id="0" precision="FP16">
					<dim>256</dim>
					<dim>256</dim>
					<dim>3</dim>
					<dim>3</dim>
				</port>
			</input>
			<output>
				<port id="1" precision="FP32" names="onnx::Conv_449">
					<dim>256</dim>
					<dim>256</dim>
					<dim>3</dim>
					<dim>3</dim>
				</port>
			</output>
		</layer>
		<layer id="206" name="Convolution_1417" type="Convolution" version="opset1">
			<data strides="1, 1" dilations="1, 1" pads_begin="1, 1" pads_end="1, 1" auto_pad="explicit"/>
			<rt_info>
				<attribute name="fused_names" version="0" value="Convolution_1417"/>
			</rt_info>
			<input>
				<port id="0" precision="FP32">
					<dim>1</dim>
					<dim>256</dim>
					<dim>14</dim>
					<dim>24</dim>
				</port>
				<port id="1" precision="FP32">
					<dim>256</dim>
					<dim>256</dim>
					<dim>3</dim>
					<dim>3</dim>
				</port>
			</input>
			<output>
				<port id="2" precision="FP32">
					<dim>1</dim>
					<dim>256</dim>
					<dim>14</dim>
					<dim>24</dim>
				</port>
			</output>
		</layer>
		<layer id="207" name="Reshape_1437_compressed" type="Const" version="opset1">
			<data element_type="f16" shape="1, 256, 1, 1" offset="15150086" size="512"/>
			<output>
				<port id="0" precision="FP16">
					<dim>1</dim>
					<dim>256</dim>
					<dim>1</dim>
					<dim>1</dim>
				</port>
			</output>
		</layer>
		<layer id="208" name="Reshape_1437" type="Convert" version="opset1">
			<data destination_type="f32"/>
			<rt_info>
				<attribute name="decompression" version="0"/>
			</rt_info>
			<input>
				<port id="0" precision="FP16">
					<dim>1</dim>
					<dim>256</dim>
					<dim>1</dim>
					<dim>1</dim>
				</port>
			</input>
			<output>
				<port id="1" precision="FP32">
					<dim>1</dim>
					<dim>256</dim>
					<dim>1</dim>
					<dim>1</dim>
				</port>
			</output>
		</layer>
		<layer id="209" name="input.216" type="Add" version="opset1">
			<data auto_broadcast="numpy"/>
			<rt_info>
				<attribute name="fused_names" version="0" value="Concat_1436, Reshape_1437, input.216"/>
			</rt_info>
			<input>
				<port id="0" precision="FP32">
					<dim>1</dim>
					<dim>256</dim>
					<dim>14</dim>
					<dim>24</dim>
				</port>
				<port id="1" precision="FP32">
					<dim>1</dim>
					<dim>256</dim>
					<dim>1</dim>
					<dim>1</dim>
				</port>
			</input>
			<output>
				<port id="2" precision="FP32" names="input.216">
					<dim>1</dim>
					<dim>256</dim>
					<dim>14</dim>
					<dim>24</dim>
				</port>
			</output>
		</layer>
		<layer id="210" name="onnx::Conv_323" type="ReLU" version="opset1">
			<rt_info>
				<attribute name="fused_names" version="0" value="onnx::Conv_323"/>
			</rt_info>
			<input>
				<port id="0" precision="FP32">
					<dim>1</dim>
					<dim>256</dim>
					<dim>14</dim>
					<dim>24</dim>
				</port>
			</input>
			<output>
				<port id="1" precision="FP32" names="onnx::Conv_323">
					<dim>1</dim>
					<dim>256</dim>
					<dim>14</dim>
					<dim>24</dim>
				</port>
			</output>
		</layer>
		<layer id="211" name="onnx::Conv_452_compressed" type="Const" version="opset1">
			<data element_type="f16" shape="256, 256, 3, 3" offset="15150598" size="1179648"/>
			<output>
				<port id="0" precision="FP16">
					<dim>256</dim>
					<dim>256</dim>
					<dim>3</dim>
					<dim>3</dim>
				</port>
			</output>
		</layer>
		<layer id="212" name="onnx::Conv_452" type="Convert" version="opset1">
			<data destination_type="f32"/>
			<rt_info>
				<attribute name="decompression" version="0"/>
				<attribute name="fused_names" version="0" value="onnx::Conv_452"/>
			</rt_info>
			<input>
				<port id="0" precision="FP16">
					<dim>256</dim>
					<dim>256</dim>
					<dim>3</dim>
					<dim>3</dim>
				</port>
			</input>
			<output>
				<port id="1" precision="FP32" names="onnx::Conv_452">
					<dim>256</dim>
					<dim>256</dim>
					<dim>3</dim>
					<dim>3</dim>
				</port>
			</output>
		</layer>
		<layer id="213" name="Convolution_1466" type="Convolution" version="opset1">
			<data strides="1, 1" dilations="1, 1" pads_begin="1, 1" pads_end="1, 1" auto_pad="explicit"/>
			<rt_info>
				<attribute name="fused_names" version="0" value="Convolution_1466"/>
			</rt_info>
			<input>
				<port id="0" precision="FP32">
					<dim>1</dim>
					<dim>256</dim>
					<dim>14</dim>
					<dim>24</dim>
				</port>
				<port id="1" precision="FP32">
					<dim>256</dim>
					<dim>256</dim>
					<dim>3</dim>
					<dim>3</dim>
				</port>
			</input>
			<output>
				<port id="2" precision="FP32">
					<dim>1</dim>
					<dim>256</dim>
					<dim>14</dim>
					<dim>24</dim>
				</port>
			</output>
		</layer>
		<layer id="214" name="Reshape_1486_compressed" type="Const" version="opset1">
			<data element_type="f16" shape="1, 256, 1, 1" offset="16330246" size="512"/>
			<output>
				<port id="0" precision="FP16">
					<dim>1</dim>
					<dim>256</dim>
					<dim>1</dim>
					<dim>1</dim>
				</port>
			</output>
		</layer>
		<layer id="215" name="Reshape_1486" type="Convert" version="opset1">
			<data destination_type="f32"/>
			<rt_info>
				<attribute name="decompression" version="0"/>
			</rt_info>
			<input>
				<port id="0" precision="FP16">
					<dim>1</dim>
					<dim>256</dim>
					<dim>1</dim>
					<dim>1</dim>
				</port>
			</input>
			<output>
				<port id="1" precision="FP32">
					<dim>1</dim>
					<dim>256</dim>
					<dim>1</dim>
					<dim>1</dim>
				</port>
			</output>
		</layer>
		<layer id="216" name="onnx::Add_451" type="Add" version="opset1">
			<data auto_broadcast="numpy"/>
			<rt_info>
				<attribute name="fused_names" version="0" value="Concat_1485, Reshape_1486, onnx::Add_451"/>
			</rt_info>
			<input>
				<port id="0" precision="FP32">
					<dim>1</dim>
					<dim>256</dim>
					<dim>14</dim>
					<dim>24</dim>
				</port>
				<port id="1" precision="FP32">
					<dim>1</dim>
					<dim>256</dim>
					<dim>1</dim>
					<dim>1</dim>
				</port>
			</input>
			<output>
				<port id="2" precision="FP32" names="onnx::Add_451">
					<dim>1</dim>
					<dim>256</dim>
					<dim>14</dim>
					<dim>24</dim>
				</port>
			</output>
		</layer>
		<layer id="217" name="onnx::Relu_326" type="Add" version="opset1">
			<data auto_broadcast="numpy"/>
			<rt_info>
				<attribute name="fused_names" version="0" value="onnx::Relu_326"/>
			</rt_info>
			<input>
				<port id="0" precision="FP32">
					<dim>1</dim>
					<dim>256</dim>
					<dim>14</dim>
					<dim>24</dim>
				</port>
				<port id="1" precision="FP32">
					<dim>1</dim>
					<dim>256</dim>
					<dim>14</dim>
					<dim>24</dim>
				</port>
			</input>
			<output>
				<port id="2" precision="FP32" names="onnx::Relu_326">
					<dim>1</dim>
					<dim>256</dim>
					<dim>14</dim>
					<dim>24</dim>
				</port>
			</output>
		</layer>
		<layer id="218" name="input.224" type="ReLU" version="opset1">
			<rt_info>
				<attribute name="fused_names" version="0" value="input.224"/>
			</rt_info>
			<input>
				<port id="0" precision="FP32">
					<dim>1</dim>
					<dim>256</dim>
					<dim>14</dim>
					<dim>24</dim>
				</port>
			</input>
			<output>
				<port id="1" precision="FP32" names="input.224">
					<dim>1</dim>
					<dim>256</dim>
					<dim>14</dim>
					<dim>24</dim>
				</port>
			</output>
		</layer>
		<layer id="219" name="onnx::Conv_455_compressed" type="Const" version="opset1">
			<data element_type="f16" shape="512, 256, 3, 3" offset="16330758" size="2359296"/>
			<output>
				<port id="0" precision="FP16">
					<dim>512</dim>
					<dim>256</dim>
					<dim>3</dim>
					<dim>3</dim>
				</port>
			</output>
		</layer>
		<layer id="220" name="onnx::Conv_455" type="Convert" version="opset1">
			<data destination_type="f32"/>
			<rt_info>
				<attribute name="decompression" version="0"/>
				<attribute name="fused_names" version="0" value="onnx::Conv_455"/>
			</rt_info>
			<input>
				<port id="0" precision="FP16">
					<dim>512</dim>
					<dim>256</dim>
					<dim>3</dim>
					<dim>3</dim>
				</port>
			</input>
			<output>
				<port id="1" precision="FP32" names="onnx::Conv_455">
					<dim>512</dim>
					<dim>256</dim>
					<dim>3</dim>
					<dim>3</dim>
				</port>
			</output>
		</layer>
		<layer id="221" name="Convolution_1516" type="Convolution" version="opset1">
			<data strides="2, 2" dilations="1, 1" pads_begin="1, 1" pads_end="1, 1" auto_pad="explicit"/>
			<rt_info>
				<attribute name="fused_names" version="0" value="Convolution_1516"/>
			</rt_info>
			<input>
				<port id="0" precision="FP32">
					<dim>1</dim>
					<dim>256</dim>
					<dim>14</dim>
					<dim>24</dim>
				</port>
				<port id="1" precision="FP32">
					<dim>512</dim>
					<dim>256</dim>
					<dim>3</dim>
					<dim>3</dim>
				</port>
			</input>
			<output>
				<port id="2" precision="FP32">
					<dim>1</dim>
					<dim>512</dim>
					<dim>7</dim>
					<dim>12</dim>
				</port>
			</output>
		</layer>
		<layer id="222" name="Reshape_1536_compressed" type="Const" version="opset1">
			<data element_type="f16" shape="1, 512, 1, 1" offset="18690054" size="1024"/>
			<output>
				<port id="0" precision="FP16">
					<dim>1</dim>
					<dim>512</dim>
					<dim>1</dim>
					<dim>1</dim>
				</port>
			</output>
		</layer>
		<layer id="223" name="Reshape_1536" type="Convert" version="opset1">
			<data destination_type="f32"/>
			<rt_info>
				<attribute name="decompression" version="0"/>
			</rt_info>
			<input>
				<port id="0" precision="FP16">
					<dim>1</dim>
					<dim>512</dim>
					<dim>1</dim>
					<dim>1</dim>
				</port>
			</input>
			<output>
				<port id="1" precision="FP32">
					<dim>1</dim>
					<dim>512</dim>
					<dim>1</dim>
					<dim>1</dim>
				</port>
			</output>
		</layer>
		<layer id="224" name="input.232" type="Add" version="opset1">
			<data auto_broadcast="numpy"/>
			<rt_info>
				<attribute name="fused_names" version="0" value="Concat_1535, Reshape_1536, input.232"/>
			</rt_info>
			<input>
				<port id="0" precision="FP32">
					<dim>1</dim>
					<dim>512</dim>
					<dim>7</dim>
					<dim>12</dim>
				</port>
				<port id="1" precision="FP32">
					<dim>1</dim>
					<dim>512</dim>
					<dim>1</dim>
					<dim>1</dim>
				</port>
			</input>
			<output>
				<port id="2" precision="FP32" names="input.232">
					<dim>1</dim>
					<dim>512</dim>
					<dim>7</dim>
					<dim>12</dim>
				</port>
			</output>
		</layer>
		<layer id="225" name="onnx::Conv_330" type="ReLU" version="opset1">
			<rt_info>
				<attribute name="fused_names" version="0" value="onnx::Conv_330"/>
			</rt_info>
			<input>
				<port id="0" precision="FP32">
					<dim>1</dim>
					<dim>512</dim>
					<dim>7</dim>
					<dim>12</dim>
				</port>
			</input>
			<output>
				<port id="1" precision="FP32" names="onnx::Conv_330">
					<dim>1</dim>
					<dim>512</dim>
					<dim>7</dim>
					<dim>12</dim>
				</port>
			</output>
		</layer>
		<layer id="226" name="onnx::Conv_458_compressed" type="Const" version="opset1">
			<data element_type="f16" shape="512, 512, 3, 3" offset="18691078" size="4718592"/>
			<output>
				<port id="0" precision="FP16">
					<dim>512</dim>
					<dim>512</dim>
					<dim>3</dim>
					<dim>3</dim>
				</port>
			</output>
		</layer>
		<layer id="227" name="onnx::Conv_458" type="Convert" version="opset1">
			<data destination_type="f32"/>
			<rt_info>
				<attribute name="decompression" version="0"/>
				<attribute name="fused_names" version="0" value="onnx::Conv_458"/>
			</rt_info>
			<input>
				<port id="0" precision="FP16">
					<dim>512</dim>
					<dim>512</dim>
					<dim>3</dim>
					<dim>3</dim>
				</port>
			</input>
			<output>
				<port id="1" precision="FP32" names="onnx::Conv_458">
					<dim>512</dim>
					<dim>512</dim>
					<dim>3</dim>
					<dim>3</dim>
				</port>
			</output>
		</layer>
		<layer id="228" name="Convolution_1565" type="Convolution" version="opset1">
			<data strides="1, 1" dilations="1, 1" pads_begin="1, 1" pads_end="1, 1" auto_pad="explicit"/>
			<rt_info>
				<attribute name="fused_names" version="0" value="Convolution_1565"/>
			</rt_info>
			<input>
				<port id="0" precision="FP32">
					<dim>1</dim>
					<dim>512</dim>
					<dim>7</dim>
					<dim>12</dim>
				</port>
				<port id="1" precision="FP32">
					<dim>512</dim>
					<dim>512</dim>
					<dim>3</dim>
					<dim>3</dim>
				</port>
			</input>
			<output>
				<port id="2" precision="FP32">
					<dim>1</dim>
					<dim>512</dim>
					<dim>7</dim>
					<dim>12</dim>
				</port>
			</output>
		</layer>
		<layer id="229" name="Reshape_1585_compressed" type="Const" version="opset1">
			<data element_type="f16" shape="1, 512, 1, 1" offset="23409670" size="1024"/>
			<output>
				<port id="0" precision="FP16">
					<dim>1</dim>
					<dim>512</dim>
					<dim>1</dim>
					<dim>1</dim>
				</port>
			</output>
		</layer>
		<layer id="230" name="Reshape_1585" type="Convert" version="opset1">
			<data destination_type="f32"/>
			<rt_info>
				<attribute name="decompression" version="0"/>
			</rt_info>
			<input>
				<port id="0" precision="FP16">
					<dim>1</dim>
					<dim>512</dim>
					<dim>1</dim>
					<dim>1</dim>
				</port>
			</input>
			<output>
				<port id="1" precision="FP32">
					<dim>1</dim>
					<dim>512</dim>
					<dim>1</dim>
					<dim>1</dim>
				</port>
			</output>
		</layer>
		<layer id="231" name="onnx::Add_457" type="Add" version="opset1">
			<data auto_broadcast="numpy"/>
			<rt_info>
				<attribute name="fused_names" version="0" value="Concat_1584, Reshape_1585, onnx::Add_457"/>
			</rt_info>
			<input>
				<port id="0" precision="FP32">
					<dim>1</dim>
					<dim>512</dim>
					<dim>7</dim>
					<dim>12</dim>
				</port>
				<port id="1" precision="FP32">
					<dim>1</dim>
					<dim>512</dim>
					<dim>1</dim>
					<dim>1</dim>
				</port>
			</input>
			<output>
				<port id="2" precision="FP32" names="onnx::Add_457">
					<dim>1</dim>
					<dim>512</dim>
					<dim>7</dim>
					<dim>12</dim>
				</port>
			</output>
		</layer>
		<layer id="232" name="onnx::Conv_461_compressed" type="Const" version="opset1">
			<data element_type="f16" shape="512, 256, 1, 1" offset="23410694" size="262144"/>
			<output>
				<port id="0" precision="FP16">
					<dim>512</dim>
					<dim>256</dim>
					<dim>1</dim>
					<dim>1</dim>
				</port>
			</output>
		</layer>
		<layer id="233" name="onnx::Conv_461" type="Convert" version="opset1">
			<data destination_type="f32"/>
			<rt_info>
				<attribute name="decompression" version="0"/>
				<attribute name="fused_names" version="0" value="onnx::Conv_461"/>
			</rt_info>
			<input>
				<port id="0" precision="FP16">
					<dim>512</dim>
					<dim>256</dim>
					<dim>1</dim>
					<dim>1</dim>
				</port>
			</input>
			<output>
				<port id="1" precision="FP32" names="onnx::Conv_461">
					<dim>512</dim>
					<dim>256</dim>
					<dim>1</dim>
					<dim>1</dim>
				</port>
			</output>
		</layer>
		<layer id="234" name="Convolution_1613" type="Convolution" version="opset1">
			<data strides="2, 2" dilations="1, 1" pads_begin="0, 0" pads_end="0, 0" auto_pad="explicit"/>
			<rt_info>
				<attribute name="fused_names" version="0" value="Convolution_1613"/>
			</rt_info>
			<input>
				<port id="0" precision="FP32">
					<dim>1</dim>
					<dim>256</dim>
					<dim>14</dim>
					<dim>24</dim>
				</port>
				<port id="1" precision="FP32">
					<dim>512</dim>
					<dim>256</dim>
					<dim>1</dim>
					<dim>1</dim>
				</port>
			</input>
			<output>
				<port id="2" precision="FP32">
					<dim>1</dim>
					<dim>512</dim>
					<dim>7</dim>
					<dim>12</dim>
				</port>
			</output>
		</layer>
		<layer id="235" name="Reshape_1633_compressed" type="Const" version="opset1">
			<data element_type="f16" shape="1, 512, 1, 1" offset="23672838" size="1024"/>
			<output>
				<port id="0" precision="FP16">
					<dim>1</dim>
					<dim>512</dim>
					<dim>1</dim>
					<dim>1</dim>
				</port>
			</output>
		</layer>
		<layer id="236" name="Reshape_1633" type="Convert" version="opset1">
			<data destination_type="f32"/>
			<rt_info>
				<attribute name="decompression" version="0"/>
			</rt_info>
			<input>
				<port id="0" precision="FP16">
					<dim>1</dim>
					<dim>512</dim>
					<dim>1</dim>
					<dim>1</dim>
				</port>
			</input>
			<output>
				<port id="1" precision="FP32">
					<dim>1</dim>
					<dim>512</dim>
					<dim>1</dim>
					<dim>1</dim>
				</port>
			</output>
		</layer>
		<layer id="237" name="onnx::Add_460" type="Add" version="opset1">
			<data auto_broadcast="numpy"/>
			<rt_info>
				<attribute name="fused_names" version="0" value="Concat_1632, Reshape_1633, onnx::Add_460"/>
			</rt_info>
			<input>
				<port id="0" precision="FP32">
					<dim>1</dim>
					<dim>512</dim>
					<dim>7</dim>
					<dim>12</dim>
				</port>
				<port id="1" precision="FP32">
					<dim>1</dim>
					<dim>512</dim>
					<dim>1</dim>
					<dim>1</dim>
				</port>
			</input>
			<output>
				<port id="2" precision="FP32" names="onnx::Add_460">
					<dim>1</dim>
					<dim>512</dim>
					<dim>7</dim>
					<dim>12</dim>
				</port>
			</output>
		</layer>
		<layer id="238" name="onnx::Relu_335" type="Add" version="opset1">
			<data auto_broadcast="numpy"/>
			<rt_info>
				<attribute name="fused_names" version="0" value="onnx::Relu_335"/>
			</rt_info>
			<input>
				<port id="0" precision="FP32">
					<dim>1</dim>
					<dim>512</dim>
					<dim>7</dim>
					<dim>12</dim>
				</port>
				<port id="1" precision="FP32">
					<dim>1</dim>
					<dim>512</dim>
					<dim>7</dim>
					<dim>12</dim>
				</port>
			</input>
			<output>
				<port id="2" precision="FP32" names="onnx::Relu_335">
					<dim>1</dim>
					<dim>512</dim>
					<dim>7</dim>
					<dim>12</dim>
				</port>
			</output>
		</layer>
		<layer id="239" name="input.244" type="ReLU" version="opset1">
			<rt_info>
				<attribute name="fused_names" version="0" value="input.244"/>
			</rt_info>
			<input>
				<port id="0" precision="FP32">
					<dim>1</dim>
					<dim>512</dim>
					<dim>7</dim>
					<dim>12</dim>
				</port>
			</input>
			<output>
				<port id="1" precision="FP32" names="input.244">
					<dim>1</dim>
					<dim>512</dim>
					<dim>7</dim>
					<dim>12</dim>
				</port>
			</output>
		</layer>
		<layer id="240" name="onnx::Conv_464_compressed" type="Const" version="opset1">
			<data element_type="f16" shape="512, 512, 3, 3" offset="23673862" size="4718592"/>
			<output>
				<port id="0" precision="FP16">
					<dim>512</dim>
					<dim>512</dim>
					<dim>3</dim>
					<dim>3</dim>
				</port>
			</output>
		</layer>
		<layer id="241" name="onnx::Conv_464" type="Convert" version="opset1">
			<data destination_type="f32"/>
			<rt_info>
				<attribute name="decompression" version="0"/>
				<attribute name="fused_names" version="0" value="onnx::Conv_464"/>
			</rt_info>
			<input>
				<port id="0" precision="FP16">
					<dim>512</dim>
					<dim>512</dim>
					<dim>3</dim>
					<dim>3</dim>
				</port>
			</input>
			<output>
				<port id="1" precision="FP32" names="onnx::Conv_464">
					<dim>512</dim>
					<dim>512</dim>
					<dim>3</dim>
					<dim>3</dim>
				</port>
			</output>
		</layer>
		<layer id="242" name="Convolution_1663" type="Convolution" version="opset1">
			<data strides="1, 1" dilations="1, 1" pads_begin="1, 1" pads_end="1, 1" auto_pad="explicit"/>
			<rt_info>
				<attribute name="fused_names" version="0" value="Convolution_1663"/>
			</rt_info>
			<input>
				<port id="0" precision="FP32">
					<dim>1</dim>
					<dim>512</dim>
					<dim>7</dim>
					<dim>12</dim>
				</port>
				<port id="1" precision="FP32">
					<dim>512</dim>
					<dim>512</dim>
					<dim>3</dim>
					<dim>3</dim>
				</port>
			</input>
			<output>
				<port id="2" precision="FP32">
					<dim>1</dim>
					<dim>512</dim>
					<dim>7</dim>
					<dim>12</dim>
				</port>
			</output>
		</layer>
		<layer id="243" name="Reshape_1683_compressed" type="Const" version="opset1">
			<data element_type="f16" shape="1, 512, 1, 1" offset="28392454" size="1024"/>
			<output>
				<port id="0" precision="FP16">
					<dim>1</dim>
					<dim>512</dim>
					<dim>1</dim>
					<dim>1</dim>
				</port>
			</output>
		</layer>
		<layer id="244" name="Reshape_1683" type="Convert" version="opset1">
			<data destination_type="f32"/>
			<rt_info>
				<attribute name="decompression" version="0"/>
			</rt_info>
			<input>
				<port id="0" precision="FP16">
					<dim>1</dim>
					<dim>512</dim>
					<dim>1</dim>
					<dim>1</dim>
				</port>
			</input>
			<output>
				<port id="1" precision="FP32">
					<dim>1</dim>
					<dim>512</dim>
					<dim>1</dim>
					<dim>1</dim>
				</port>
			</output>
		</layer>
		<layer id="245" name="input.252" type="Add" version="opset1">
			<data auto_broadcast="numpy"/>
			<rt_info>
				<attribute name="fused_names" version="0" value="Concat_1682, Reshape_1683, input.252"/>
			</rt_info>
			<input>
				<port id="0" precision="FP32">
					<dim>1</dim>
					<dim>512</dim>
					<dim>7</dim>
					<dim>12</dim>
				</port>
				<port id="1" precision="FP32">
					<dim>1</dim>
					<dim>512</dim>
					<dim>1</dim>
					<dim>1</dim>
				</port>
			</input>
			<output>
				<port id="2" precision="FP32" names="input.252">
					<dim>1</dim>
					<dim>512</dim>
					<dim>7</dim>
					<dim>12</dim>
				</port>
			</output>
		</layer>
		<layer id="246" name="onnx::Conv_339" type="ReLU" version="opset1">
			<rt_info>
				<attribute name="fused_names" version="0" value="onnx::Conv_339"/>
			</rt_info>
			<input>
				<port id="0" precision="FP32">
					<dim>1</dim>
					<dim>512</dim>
					<dim>7</dim>
					<dim>12</dim>
				</port>
			</input>
			<output>
				<port id="1" precision="FP32" names="onnx::Conv_339">
					<dim>1</dim>
					<dim>512</dim>
					<dim>7</dim>
					<dim>12</dim>
				</port>
			</output>
		</layer>
		<layer id="247" name="onnx::Conv_467_compressed" type="Const" version="opset1">
			<data element_type="f16" shape="512, 512, 3, 3" offset="28393478" size="4718592"/>
			<output>
				<port id="0" precision="FP16">
					<dim>512</dim>
					<dim>512</dim>
					<dim>3</dim>
					<dim>3</dim>
				</port>
			</output>
		</layer>
		<layer id="248" name="onnx::Conv_467" type="Convert" version="opset1">
			<data destination_type="f32"/>
			<rt_info>
				<attribute name="decompression" version="0"/>
				<attribute name="fused_names" version="0" value="onnx::Conv_467"/>
			</rt_info>
			<input>
				<port id="0" precision="FP16">
					<dim>512</dim>
					<dim>512</dim>
					<dim>3</dim>
					<dim>3</dim>
				</port>
			</input>
			<output>
				<port id="1" precision="FP32" names="onnx::Conv_467">
					<dim>512</dim>
					<dim>512</dim>
					<dim>3</dim>
					<dim>3</dim>
				</port>
			</output>
		</layer>
		<layer id="249" name="Convolution_1712" type="Convolution" version="opset1">
			<data strides="1, 1" dilations="1, 1" pads_begin="1, 1" pads_end="1, 1" auto_pad="explicit"/>
			<rt_info>
				<attribute name="fused_names" version="0" value="Convolution_1712"/>
			</rt_info>
			<input>
				<port id="0" precision="FP32">
					<dim>1</dim>
					<dim>512</dim>
					<dim>7</dim>
					<dim>12</dim>
				</port>
				<port id="1" precision="FP32">
					<dim>512</dim>
					<dim>512</dim>
					<dim>3</dim>
					<dim>3</dim>
				</port>
			</input>
			<output>
				<port id="2" precision="FP32">
					<dim>1</dim>
					<dim>512</dim>
					<dim>7</dim>
					<dim>12</dim>
				</port>
			</output>
		</layer>
		<layer id="250" name="Reshape_1732_compressed" type="Const" version="opset1">
			<data element_type="f16" shape="1, 512, 1, 1" offset="33112070" size="1024"/>
			<output>
				<port id="0" precision="FP16">
					<dim>1</dim>
					<dim>512</dim>
					<dim>1</dim>
					<dim>1</dim>
				</port>
			</output>
		</layer>
		<layer id="251" name="Reshape_1732" type="Convert" version="opset1">
			<data destination_type="f32"/>
			<rt_info>
				<attribute name="decompression" version="0"/>
			</rt_info>
			<input>
				<port id="0" precision="FP16">
					<dim>1</dim>
					<dim>512</dim>
					<dim>1</dim>
					<dim>1</dim>
				</port>
			</input>
			<output>
				<port id="1" precision="FP32">
					<dim>1</dim>
					<dim>512</dim>
					<dim>1</dim>
					<dim>1</dim>
				</port>
			</output>
		</layer>
		<layer id="252" name="onnx::Add_466" type="Add" version="opset1">
			<data auto_broadcast="numpy"/>
			<rt_info>
				<attribute name="fused_names" version="0" value="Concat_1731, Reshape_1732, onnx::Add_466"/>
			</rt_info>
			<input>
				<port id="0" precision="FP32">
					<dim>1</dim>
					<dim>512</dim>
					<dim>7</dim>
					<dim>12</dim>
				</port>
				<port id="1" precision="FP32">
					<dim>1</dim>
					<dim>512</dim>
					<dim>1</dim>
					<dim>1</dim>
				</port>
			</input>
			<output>
				<port id="2" precision="FP32" names="onnx::Add_466">
					<dim>1</dim>
					<dim>512</dim>
					<dim>7</dim>
					<dim>12</dim>
				</port>
			</output>
		</layer>
		<layer id="253" name="onnx::Relu_342" type="Add" version="opset1">
			<data auto_broadcast="numpy"/>
			<rt_info>
				<attribute name="fused_names" version="0" value="onnx::Relu_342"/>
			</rt_info>
			<input>
				<port id="0" precision="FP32">
					<dim>1</dim>
					<dim>512</dim>
					<dim>7</dim>
					<dim>12</dim>
				</port>
				<port id="1" precision="FP32">
					<dim>1</dim>
					<dim>512</dim>
					<dim>7</dim>
					<dim>12</dim>
				</port>
			</input>
			<output>
				<port id="2" precision="FP32" names="onnx::Relu_342">
					<dim>1</dim>
					<dim>512</dim>
					<dim>7</dim>
					<dim>12</dim>
				</port>
			</output>
		</layer>
		<layer id="254" name="input.260" type="ReLU" version="opset1">
			<rt_info>
				<attribute name="fused_names" version="0" value="input.260"/>
			</rt_info>
			<input>
				<port id="0" precision="FP32">
					<dim>1</dim>
					<dim>512</dim>
					<dim>7</dim>
					<dim>12</dim>
				</port>
			</input>
			<output>
				<port id="1" precision="FP32" names="input.260">
					<dim>1</dim>
					<dim>512</dim>
					<dim>7</dim>
					<dim>12</dim>
				</port>
			</output>
		</layer>
		<layer id="255" name="onnx::Conv_470_compressed" type="Const" version="opset1">
			<data element_type="f16" shape="512, 512, 3, 3" offset="33113094" size="4718592"/>
			<output>
				<port id="0" precision="FP16">
					<dim>512</dim>
					<dim>512</dim>
					<dim>3</dim>
					<dim>3</dim>
				</port>
			</output>
		</layer>
		<layer id="256" name="onnx::Conv_470" type="Convert" version="opset1">
			<data destination_type="f32"/>
			<rt_info>
				<attribute name="decompression" version="0"/>
				<attribute name="fused_names" version="0" value="onnx::Conv_470"/>
			</rt_info>
			<input>
				<port id="0" precision="FP16">
					<dim>512</dim>
					<dim>512</dim>
					<dim>3</dim>
					<dim>3</dim>
				</port>
			</input>
			<output>
				<port id="1" precision="FP32" names="onnx::Conv_470">
					<dim>512</dim>
					<dim>512</dim>
					<dim>3</dim>
					<dim>3</dim>
				</port>
			</output>
		</layer>
		<layer id="257" name="Convolution_1762" type="Convolution" version="opset1">
			<data strides="1, 1" dilations="1, 1" pads_begin="1, 1" pads_end="1, 1" auto_pad="explicit"/>
			<rt_info>
				<attribute name="fused_names" version="0" value="Convolution_1762"/>
			</rt_info>
			<input>
				<port id="0" precision="FP32">
					<dim>1</dim>
					<dim>512</dim>
					<dim>7</dim>
					<dim>12</dim>
				</port>
				<port id="1" precision="FP32">
					<dim>512</dim>
					<dim>512</dim>
					<dim>3</dim>
					<dim>3</dim>
				</port>
			</input>
			<output>
				<port id="2" precision="FP32">
					<dim>1</dim>
					<dim>512</dim>
					<dim>7</dim>
					<dim>12</dim>
				</port>
			</output>
		</layer>
		<layer id="258" name="Reshape_1782_compressed" type="Const" version="opset1">
			<data element_type="f16" shape="1, 512, 1, 1" offset="37831686" size="1024"/>
			<output>
				<port id="0" precision="FP16">
					<dim>1</dim>
					<dim>512</dim>
					<dim>1</dim>
					<dim>1</dim>
				</port>
			</output>
		</layer>
		<layer id="259" name="Reshape_1782" type="Convert" version="opset1">
			<data destination_type="f32"/>
			<rt_info>
				<attribute name="decompression" version="0"/>
			</rt_info>
			<input>
				<port id="0" precision="FP16">
					<dim>1</dim>
					<dim>512</dim>
					<dim>1</dim>
					<dim>1</dim>
				</port>
			</input>
			<output>
				<port id="1" precision="FP32">
					<dim>1</dim>
					<dim>512</dim>
					<dim>1</dim>
					<dim>1</dim>
				</port>
			</output>
		</layer>
		<layer id="260" name="input.268" type="Add" version="opset1">
			<data auto_broadcast="numpy"/>
			<rt_info>
				<attribute name="fused_names" version="0" value="Concat_1781, Reshape_1782, input.268"/>
			</rt_info>
			<input>
				<port id="0" precision="FP32">
					<dim>1</dim>
					<dim>512</dim>
					<dim>7</dim>
					<dim>12</dim>
				</port>
				<port id="1" precision="FP32">
					<dim>1</dim>
					<dim>512</dim>
					<dim>1</dim>
					<dim>1</dim>
				</port>
			</input>
			<output>
				<port id="2" precision="FP32" names="input.268">
					<dim>1</dim>
					<dim>512</dim>
					<dim>7</dim>
					<dim>12</dim>
				</port>
			</output>
		</layer>
		<layer id="261" name="onnx::Conv_346" type="ReLU" version="opset1">
			<rt_info>
				<attribute name="fused_names" version="0" value="onnx::Conv_346"/>
			</rt_info>
			<input>
				<port id="0" precision="FP32">
					<dim>1</dim>
					<dim>512</dim>
					<dim>7</dim>
					<dim>12</dim>
				</port>
			</input>
			<output>
				<port id="1" precision="FP32" names="onnx::Conv_346">
					<dim>1</dim>
					<dim>512</dim>
					<dim>7</dim>
					<dim>12</dim>
				</port>
			</output>
		</layer>
		<layer id="262" name="onnx::Conv_473_compressed" type="Const" version="opset1">
			<data element_type="f16" shape="512, 512, 3, 3" offset="37832710" size="4718592"/>
			<output>
				<port id="0" precision="FP16">
					<dim>512</dim>
					<dim>512</dim>
					<dim>3</dim>
					<dim>3</dim>
				</port>
			</output>
		</layer>
		<layer id="263" name="onnx::Conv_473" type="Convert" version="opset1">
			<data destination_type="f32"/>
			<rt_info>
				<attribute name="decompression" version="0"/>
				<attribute name="fused_names" version="0" value="onnx::Conv_473"/>
			</rt_info>
			<input>
				<port id="0" precision="FP16">
					<dim>512</dim>
					<dim>512</dim>
					<dim>3</dim>
					<dim>3</dim>
				</port>
			</input>
			<output>
				<port id="1" precision="FP32" names="onnx::Conv_473">
					<dim>512</dim>
					<dim>512</dim>
					<dim>3</dim>
					<dim>3</dim>
				</port>
			</output>
		</layer>
		<layer id="264" name="Convolution_1811" type="Convolution" version="opset1">
			<data strides="1, 1" dilations="1, 1" pads_begin="1, 1" pads_end="1, 1" auto_pad="explicit"/>
			<rt_info>
				<attribute name="fused_names" version="0" value="Convolution_1811"/>
			</rt_info>
			<input>
				<port id="0" precision="FP32">
					<dim>1</dim>
					<dim>512</dim>
					<dim>7</dim>
					<dim>12</dim>
				</port>
				<port id="1" precision="FP32">
					<dim>512</dim>
					<dim>512</dim>
					<dim>3</dim>
					<dim>3</dim>
				</port>
			</input>
			<output>
				<port id="2" precision="FP32">
					<dim>1</dim>
					<dim>512</dim>
					<dim>7</dim>
					<dim>12</dim>
				</port>
			</output>
		</layer>
		<layer id="265" name="Reshape_1831_compressed" type="Const" version="opset1">
			<data element_type="f16" shape="1, 512, 1, 1" offset="42551302" size="1024"/>
			<output>
				<port id="0" precision="FP16">
					<dim>1</dim>
					<dim>512</dim>
					<dim>1</dim>
					<dim>1</dim>
				</port>
			</output>
		</layer>
		<layer id="266" name="Reshape_1831" type="Convert" version="opset1">
			<data destination_type="f32"/>
			<rt_info>
				<attribute name="decompression" version="0"/>
			</rt_info>
			<input>
				<port id="0" precision="FP16">
					<dim>1</dim>
					<dim>512</dim>
					<dim>1</dim>
					<dim>1</dim>
				</port>
			</input>
			<output>
				<port id="1" precision="FP32">
					<dim>1</dim>
					<dim>512</dim>
					<dim>1</dim>
					<dim>1</dim>
				</port>
			</output>
		</layer>
		<layer id="267" name="onnx::Add_472" type="Add" version="opset1">
			<data auto_broadcast="numpy"/>
			<rt_info>
				<attribute name="fused_names" version="0" value="Concat_1830, Reshape_1831, onnx::Add_472"/>
			</rt_info>
			<input>
				<port id="0" precision="FP32">
					<dim>1</dim>
					<dim>512</dim>
					<dim>7</dim>
					<dim>12</dim>
				</port>
				<port id="1" precision="FP32">
					<dim>1</dim>
					<dim>512</dim>
					<dim>1</dim>
					<dim>1</dim>
				</port>
			</input>
			<output>
				<port id="2" precision="FP32" names="onnx::Add_472">
					<dim>1</dim>
					<dim>512</dim>
					<dim>7</dim>
					<dim>12</dim>
				</port>
			</output>
		</layer>
		<layer id="268" name="onnx::Relu_349" type="Add" version="opset1">
			<data auto_broadcast="numpy"/>
			<rt_info>
				<attribute name="fused_names" version="0" value="onnx::Relu_349"/>
			</rt_info>
			<input>
				<port id="0" precision="FP32">
					<dim>1</dim>
					<dim>512</dim>
					<dim>7</dim>
					<dim>12</dim>
				</port>
				<port id="1" precision="FP32">
					<dim>1</dim>
					<dim>512</dim>
					<dim>7</dim>
					<dim>12</dim>
				</port>
			</input>
			<output>
				<port id="2" precision="FP32" names="onnx::Relu_349">
					<dim>1</dim>
					<dim>512</dim>
					<dim>7</dim>
					<dim>12</dim>
				</port>
			</output>
		</layer>
		<layer id="269" name="input.276" type="ReLU" version="opset1">
			<rt_info>
				<attribute name="fused_names" version="0" value="input.276"/>
			</rt_info>
			<input>
				<port id="0" precision="FP32">
					<dim>1</dim>
					<dim>512</dim>
					<dim>7</dim>
					<dim>12</dim>
				</port>
			</input>
			<output>
				<port id="1" precision="FP32" names="input.276">
					<dim>1</dim>
					<dim>512</dim>
					<dim>7</dim>
					<dim>12</dim>
				</port>
			</output>
		</layer>
		<layer id="270" name="Range_1868" type="Const" version="opset1">
			<data element_type="i64" shape="2" offset="42552326" size="16"/>
			<output>
				<port id="0" precision="I64">
					<dim>2</dim>
				</port>
			</output>
		</layer>
		<layer id="271" name="onnx::Concat_351" type="ReduceMax" version="opset1">
			<data keep_dims="true"/>
			<rt_info>
				<attribute name="fused_names" version="0" value="Range_1868, onnx::Concat_351"/>
			</rt_info>
			<input>
				<port id="0" precision="FP32">
					<dim>1</dim>
					<dim>512</dim>
					<dim>7</dim>
					<dim>12</dim>
				</port>
				<port id="1" precision="I64">
					<dim>2</dim>
				</port>
			</input>
			<output>
				<port id="2" precision="FP32" names="onnx::Concat_351">
					<dim>1</dim>
					<dim>512</dim>
					<dim>1</dim>
					<dim>1</dim>
				</port>
			</output>
		</layer>
		<layer id="272" name="Range_1900" type="Const" version="opset1">
			<data element_type="i64" shape="2" offset="42552326" size="16"/>
			<output>
				<port id="0" precision="I64">
					<dim>2</dim>
				</port>
			</output>
		</layer>
		<layer id="273" name="onnx::Concat_352" type="ReduceMean" version="opset1">
			<data keep_dims="true"/>
			<rt_info>
				<attribute name="fused_names" version="0" value="Range_1900, onnx::Concat_352"/>
			</rt_info>
			<input>
				<port id="0" precision="FP32">
					<dim>1</dim>
					<dim>512</dim>
					<dim>7</dim>
					<dim>12</dim>
				</port>
				<port id="1" precision="I64">
					<dim>2</dim>
				</port>
			</input>
			<output>
				<port id="2" precision="FP32" names="onnx::Concat_352">
					<dim>1</dim>
					<dim>512</dim>
					<dim>1</dim>
					<dim>1</dim>
				</port>
			</output>
		</layer>
		<layer id="274" name="onnx::Reshape_353" type="Concat" version="opset1">
			<data axis="1"/>
			<rt_info>
				<attribute name="fused_names" version="0" value="onnx::Reshape_353"/>
			</rt_info>
			<input>
				<port id="0" precision="FP32">
					<dim>1</dim>
					<dim>512</dim>
					<dim>1</dim>
					<dim>1</dim>
				</port>
				<port id="1" precision="FP32">
					<dim>1</dim>
					<dim>512</dim>
					<dim>1</dim>
					<dim>1</dim>
				</port>
			</input>
			<output>
				<port id="2" precision="FP32" names="onnx::Reshape_353">
					<dim>1</dim>
					<dim>1024</dim>
					<dim>1</dim>
					<dim>1</dim>
				</port>
			</output>
		</layer>
		<layer id="275" name="onnx::Reshape_358" type="Const" version="opset1">
			<data element_type="i64" shape="2" offset="42552342" size="16"/>
			<output>
				<port id="0" precision="I64" names="onnx::Reshape_358">
					<dim>2</dim>
				</port>
			</output>
		</layer>
		<layer id="276" name="x" type="Reshape" version="opset1">
			<data special_zero="true"/>
			<rt_info>
				<attribute name="fused_names" version="0" value="onnx::Reshape_358, x"/>
			</rt_info>
			<input>
				<port id="0" precision="FP32">
					<dim>1</dim>
					<dim>1024</dim>
					<dim>1</dim>
					<dim>1</dim>
				</port>
				<port id="1" precision="I64">
					<dim>2</dim>
				</port>
			</input>
			<output>
				<port id="2" precision="FP32" names="x">
					<dim>1</dim>
					<dim>1024</dim>
				</port>
			</output>
		</layer>
		<layer id="277" name="Constant_4438_compressed" type="Const" version="opset1">
			<data element_type="f16" shape="1, 1024" offset="42552358" size="2048"/>
			<output>
				<port id="0" precision="FP16">
					<dim>1</dim>
					<dim>1024</dim>
				</port>
			</output>
		</layer>
		<layer id="278" name="Constant_4438" type="Convert" version="opset1">
			<data destination_type="f32"/>
			<rt_info>
				<attribute name="decompression" version="0"/>
				<attribute name="fused_names" version="0" value="1.2.bias, 1.2.running_mean, 1.2.running_var, 1.2.weight, ret"/>
			</rt_info>
			<input>
				<port id="0" precision="FP16">
					<dim>1</dim>
					<dim>1024</dim>
				</port>
			</input>
			<output>
				<port id="1" precision="FP32">
					<dim>1</dim>
					<dim>1024</dim>
				</port>
			</output>
		</layer>
		<layer id="279" name="Multiply_4568" type="Multiply" version="opset1">
			<data auto_broadcast="numpy"/>
			<rt_info>
				<attribute name="fused_names" version="0" value="1.2.bias, 1.2.running_mean, 1.2.running_var, 1.2.weight, ret"/>
			</rt_info>
			<input>
				<port id="0" precision="FP32">
					<dim>1</dim>
					<dim>1024</dim>
				</port>
				<port id="1" precision="FP32">
					<dim>1</dim>
					<dim>1024</dim>
				</port>
			</input>
			<output>
				<port id="2" precision="FP32">
					<dim>1</dim>
					<dim>1024</dim>
				</port>
			</output>
		</layer>
		<layer id="280" name="Constant_4573_compressed" type="Const" version="opset1">
			<data element_type="f16" shape="1, 1024" offset="42554406" size="2048"/>
			<output>
				<port id="0" precision="FP16">
					<dim>1</dim>
					<dim>1024</dim>
				</port>
			</output>
		</layer>
		<layer id="281" name="Constant_4573" type="Convert" version="opset1">
			<data destination_type="f32"/>
			<rt_info>
				<attribute name="decompression" version="0"/>
			</rt_info>
			<input>
				<port id="0" precision="FP16">
					<dim>1</dim>
					<dim>1024</dim>
				</port>
			</input>
			<output>
				<port id="1" precision="FP32">
					<dim>1</dim>
					<dim>1024</dim>
				</port>
			</output>
		</layer>
		<layer id="282" name="ret" type="Add" version="opset1">
			<data auto_broadcast="numpy"/>
			<rt_info>
				<attribute name="fused_names" version="0" value="1.2.bias, 1.2.running_mean, 1.2.running_var, 1.2.weight, ret"/>
			</rt_info>
			<input>
				<port id="0" precision="FP32">
					<dim>1</dim>
					<dim>1024</dim>
				</port>
				<port id="1" precision="FP32">
					<dim>1</dim>
					<dim>1024</dim>
				</port>
			</input>
			<output>
				<port id="2" precision="FP32" names="ret">
					<dim>1</dim>
					<dim>1024</dim>
				</port>
			</output>
		</layer>
		<layer id="283" name="Constant_4294_compressed" type="Const" version="opset1">
			<data element_type="f16" shape="512, 1024" offset="42556454" size="1048576"/>
			<output>
				<port id="0" precision="FP16">
					<dim>512</dim>
					<dim>1024</dim>
				</port>
			</output>
		</layer>
		<layer id="284" name="Constant_4294" type="Convert" version="opset1">
			<data destination_type="f32"/>
			<rt_info>
				<attribute name="decompression" version="0"/>
				<attribute name="fused_names" version="0" value="onnx::MatMul_361, ret.3"/>
			</rt_info>
			<input>
				<port id="0" precision="FP16">
					<dim>512</dim>
					<dim>1024</dim>
				</port>
			</input>
			<output>
				<port id="1" precision="FP32">
					<dim>512</dim>
					<dim>1024</dim>
				</port>
			</output>
		</layer>
		<layer id="285" name="ret.3" type="MatMul" version="opset1">
			<data transpose_a="false" transpose_b="true"/>
			<rt_info>
				<attribute name="fused_names" version="0" value="onnx::MatMul_361, ret.3"/>
			</rt_info>
			<input>
				<port id="0" precision="FP32">
					<dim>1</dim>
					<dim>1024</dim>
				</port>
				<port id="1" precision="FP32">
					<dim>512</dim>
					<dim>1024</dim>
				</port>
			</input>
			<output>
				<port id="2" precision="FP32" names="ret.3">
					<dim>1</dim>
					<dim>512</dim>
				</port>
			</output>
		</layer>
		<layer id="286" name="onnx::BatchNormalization_363" type="ReLU" version="opset1">
			<rt_info>
				<attribute name="fused_names" version="0" value="onnx::BatchNormalization_363"/>
			</rt_info>
			<input>
				<port id="0" precision="FP32">
					<dim>1</dim>
					<dim>512</dim>
				</port>
			</input>
			<output>
				<port id="1" precision="FP32" names="onnx::BatchNormalization_363">
					<dim>1</dim>
					<dim>512</dim>
				</port>
			</output>
		</layer>
		<layer id="287" name="Constant_4564_compressed" type="Const" version="opset1">
			<data element_type="f16" shape="1, 512" offset="43605030" size="1024"/>
			<output>
				<port id="0" precision="FP16">
					<dim>1</dim>
					<dim>512</dim>
				</port>
			</output>
		</layer>
		<layer id="288" name="Constant_4564" type="Convert" version="opset1">
			<data destination_type="f32"/>
			<rt_info>
				<attribute name="decompression" version="0"/>
				<attribute name="fused_names" version="0" value="1.6.bias, 1.6.running_mean, 1.6.running_var, 1.6.weight, ret.7"/>
			</rt_info>
			<input>
				<port id="0" precision="FP16">
					<dim>1</dim>
					<dim>512</dim>
				</port>
			</input>
			<output>
				<port id="1" precision="FP32">
					<dim>1</dim>
					<dim>512</dim>
				</port>
			</output>
		</layer>
		<layer id="289" name="Multiply_4575" type="Multiply" version="opset1">
			<data auto_broadcast="numpy"/>
			<rt_info>
				<attribute name="fused_names" version="0" value="1.6.bias, 1.6.running_mean, 1.6.running_var, 1.6.weight, ret.7"/>
			</rt_info>
			<input>
				<port id="0" precision="FP32">
					<dim>1</dim>
					<dim>512</dim>
				</port>
				<port id="1" precision="FP32">
					<dim>1</dim>
					<dim>512</dim>
				</port>
			</input>
			<output>
				<port id="2" precision="FP32">
					<dim>1</dim>
					<dim>512</dim>
				</port>
			</output>
		</layer>
		<layer id="290" name="Constant_4580_compressed" type="Const" version="opset1">
			<data element_type="f16" shape="1, 512" offset="43606054" size="1024"/>
			<output>
				<port id="0" precision="FP16">
					<dim>1</dim>
					<dim>512</dim>
				</port>
			</output>
		</layer>
		<layer id="291" name="Constant_4580" type="Convert" version="opset1">
			<data destination_type="f32"/>
			<rt_info>
				<attribute name="decompression" version="0"/>
			</rt_info>
			<input>
				<port id="0" precision="FP16">
					<dim>1</dim>
					<dim>512</dim>
				</port>
			</input>
			<output>
				<port id="1" precision="FP32">
					<dim>1</dim>
					<dim>512</dim>
				</port>
			</output>
		</layer>
		<layer id="292" name="ret.7" type="Add" version="opset1">
			<data auto_broadcast="numpy"/>
			<rt_info>
				<attribute name="fused_names" version="0" value="1.6.bias, 1.6.running_mean, 1.6.running_var, 1.6.weight, ret.7"/>
			</rt_info>
			<input>
				<port id="0" precision="FP32">
					<dim>1</dim>
					<dim>512</dim>
				</port>
				<port id="1" precision="FP32">
					<dim>1</dim>
					<dim>512</dim>
				</port>
			</input>
			<output>
				<port id="2" precision="FP32" names="ret.7">
					<dim>1</dim>
					<dim>512</dim>
				</port>
			</output>
		</layer>
		<layer id="293" name="Constant_4301_compressed" type="Const" version="opset1">
			<data element_type="f16" shape="51, 512" offset="43607078" size="52224"/>
			<output>
				<port id="0" precision="FP16">
					<dim>51</dim>
					<dim>512</dim>
				</port>
			</output>
		</layer>
		<layer id="294" name="Constant_4301" type="Convert" version="opset1">
			<data destination_type="f32"/>
			<rt_info>
				<attribute name="decompression" version="0"/>
				<attribute name="fused_names" version="0" value="onnx::MatMul_365, output"/>
			</rt_info>
			<input>
				<port id="0" precision="FP16">
					<dim>51</dim>
					<dim>512</dim>
				</port>
			</input>
			<output>
				<port id="1" precision="FP32">
					<dim>51</dim>
					<dim>512</dim>
				</port>
			</output>
		</layer>
		<layer id="295" name="output" type="MatMul" version="opset1">
			<data transpose_a="false" transpose_b="true"/>
			<rt_info>
				<attribute name="fused_names" version="0" value="onnx::MatMul_365, output"/>
			</rt_info>
			<input>
				<port id="0" precision="FP32">
					<dim>1</dim>
					<dim>512</dim>
				</port>
				<port id="1" precision="FP32">
					<dim>51</dim>
					<dim>512</dim>
				</port>
			</input>
			<output>
				<port id="2" precision="FP32" names="output">
					<dim>1</dim>
					<dim>51</dim>
				</port>
			</output>
		</layer>
		<layer id="296" name="output/sink_port_0" type="Result" version="opset1">
			<rt_info>
				<attribute name="fused_names" version="0" value="output/sink_port_0"/>
			</rt_info>
			<input>
				<port id="0" precision="FP32">
					<dim>1</dim>
					<dim>51</dim>
				</port>
			</input>
		</layer>
	</layers>
	<edges>
		<edge from-layer="0" from-port="0" to-layer="3" to-port="0"/>
		<edge from-layer="1" from-port="0" to-layer="2" to-port="0"/>
		<edge from-layer="2" from-port="1" to-layer="3" to-port="1"/>
		<edge from-layer="3" from-port="2" to-layer="6" to-port="0"/>
		<edge from-layer="4" from-port="0" to-layer="5" to-port="0"/>
		<edge from-layer="5" from-port="1" to-layer="6" to-port="1"/>
		<edge from-layer="6" from-port="2" to-layer="9" to-port="0"/>
		<edge from-layer="7" from-port="0" to-layer="8" to-port="0"/>
		<edge from-layer="8" from-port="1" to-layer="9" to-port="1"/>
		<edge from-layer="9" from-port="2" to-layer="10" to-port="0"/>
		<edge from-layer="10" from-port="1" to-layer="11" to-port="0"/>
		<edge from-layer="11" from-port="1" to-layer="14" to-port="0"/>
		<edge from-layer="11" from-port="1" to-layer="25" to-port="1"/>
		<edge from-layer="12" from-port="0" to-layer="13" to-port="0"/>
		<edge from-layer="13" from-port="1" to-layer="14" to-port="1"/>
		<edge from-layer="14" from-port="2" to-layer="17" to-port="0"/>
		<edge from-layer="15" from-port="0" to-layer="16" to-port="0"/>
		<edge from-layer="16" from-port="1" to-layer="17" to-port="1"/>
		<edge from-layer="17" from-port="2" to-layer="18" to-port="0"/>
		<edge from-layer="18" from-port="1" to-layer="21" to-port="0"/>
		<edge from-layer="19" from-port="0" to-layer="20" to-port="0"/>
		<edge from-layer="20" from-port="1" to-layer="21" to-port="1"/>
		<edge from-layer="21" from-port="2" to-layer="24" to-port="0"/>
		<edge from-layer="22" from-port="0" to-layer="23" to-port="0"/>
		<edge from-layer="23" from-port="1" to-layer="24" to-port="1"/>
		<edge from-layer="24" from-port="2" to-layer="25" to-port="0"/>
		<edge from-layer="25" from-port="2" to-layer="26" to-port="0"/>
		<edge from-layer="26" from-port="1" to-layer="40" to-port="1"/>
		<edge from-layer="26" from-port="1" to-layer="29" to-port="0"/>
		<edge from-layer="27" from-port="0" to-layer="28" to-port="0"/>
		<edge from-layer="28" from-port="1" to-layer="29" to-port="1"/>
		<edge from-layer="29" from-port="2" to-layer="32" to-port="0"/>
		<edge from-layer="30" from-port="0" to-layer="31" to-port="0"/>
		<edge from-layer="31" from-port="1" to-layer="32" to-port="1"/>
		<edge from-layer="32" from-port="2" to-layer="33" to-port="0"/>
		<edge from-layer="33" from-port="1" to-layer="36" to-port="0"/>
		<edge from-layer="34" from-port="0" to-layer="35" to-port="0"/>
		<edge from-layer="35" from-port="1" to-layer="36" to-port="1"/>
		<edge from-layer="36" from-port="2" to-layer="39" to-port="0"/>
		<edge from-layer="37" from-port="0" to-layer="38" to-port="0"/>
		<edge from-layer="38" from-port="1" to-layer="39" to-port="1"/>
		<edge from-layer="39" from-port="2" to-layer="40" to-port="0"/>
		<edge from-layer="40" from-port="2" to-layer="41" to-port="0"/>
		<edge from-layer="41" from-port="1" to-layer="44" to-port="0"/>
		<edge from-layer="41" from-port="1" to-layer="55" to-port="1"/>
		<edge from-layer="42" from-port="0" to-layer="43" to-port="0"/>
		<edge from-layer="43" from-port="1" to-layer="44" to-port="1"/>
		<edge from-layer="44" from-port="2" to-layer="47" to-port="0"/>
		<edge from-layer="45" from-port="0" to-layer="46" to-port="0"/>
		<edge from-layer="46" from-port="1" to-layer="47" to-port="1"/>
		<edge from-layer="47" from-port="2" to-layer="48" to-port="0"/>
		<edge from-layer="48" from-port="1" to-layer="51" to-port="0"/>
		<edge from-layer="49" from-port="0" to-layer="50" to-port="0"/>
		<edge from-layer="50" from-port="1" to-layer="51" to-port="1"/>
		<edge from-layer="51" from-port="2" to-layer="54" to-port="0"/>
		<edge from-layer="52" from-port="0" to-layer="53" to-port="0"/>
		<edge from-layer="53" from-port="1" to-layer="54" to-port="1"/>
		<edge from-layer="54" from-port="2" to-layer="55" to-port="0"/>
		<edge from-layer="55" from-port="2" to-layer="56" to-port="0"/>
		<edge from-layer="56" from-port="1" to-layer="59" to-port="0"/>
		<edge from-layer="56" from-port="1" to-layer="72" to-port="0"/>
		<edge from-layer="57" from-port="0" to-layer="58" to-port="0"/>
		<edge from-layer="58" from-port="1" to-layer="59" to-port="1"/>
		<edge from-layer="59" from-port="2" to-layer="62" to-port="0"/>
		<edge from-layer="60" from-port="0" to-layer="61" to-port="0"/>
		<edge from-layer="61" from-port="1" to-layer="62" to-port="1"/>
		<edge from-layer="62" from-port="2" to-layer="63" to-port="0"/>
		<edge from-layer="63" from-port="1" to-layer="66" to-port="0"/>
		<edge from-layer="64" from-port="0" to-layer="65" to-port="0"/>
		<edge from-layer="65" from-port="1" to-layer="66" to-port="1"/>
		<edge from-layer="66" from-port="2" to-layer="69" to-port="0"/>
		<edge from-layer="67" from-port="0" to-layer="68" to-port="0"/>
		<edge from-layer="68" from-port="1" to-layer="69" to-port="1"/>
		<edge from-layer="69" from-port="2" to-layer="76" to-port="0"/>
		<edge from-layer="70" from-port="0" to-layer="71" to-port="0"/>
		<edge from-layer="71" from-port="1" to-layer="72" to-port="1"/>
		<edge from-layer="72" from-port="2" to-layer="75" to-port="0"/>
		<edge from-layer="73" from-port="0" to-layer="74" to-port="0"/>
		<edge from-layer="74" from-port="1" to-layer="75" to-port="1"/>
		<edge from-layer="75" from-port="2" to-layer="76" to-port="1"/>
		<edge from-layer="76" from-port="2" to-layer="77" to-port="0"/>
		<edge from-layer="77" from-port="1" to-layer="80" to-port="0"/>
		<edge from-layer="77" from-port="1" to-layer="91" to-port="1"/>
		<edge from-layer="78" from-port="0" to-layer="79" to-port="0"/>
		<edge from-layer="79" from-port="1" to-layer="80" to-port="1"/>
		<edge from-layer="80" from-port="2" to-layer="83" to-port="0"/>
		<edge from-layer="81" from-port="0" to-layer="82" to-port="0"/>
		<edge from-layer="82" from-port="1" to-layer="83" to-port="1"/>
		<edge from-layer="83" from-port="2" to-layer="84" to-port="0"/>
		<edge from-layer="84" from-port="1" to-layer="87" to-port="0"/>
		<edge from-layer="85" from-port="0" to-layer="86" to-port="0"/>
		<edge from-layer="86" from-port="1" to-layer="87" to-port="1"/>
		<edge from-layer="87" from-port="2" to-layer="90" to-port="0"/>
		<edge from-layer="88" from-port="0" to-layer="89" to-port="0"/>
		<edge from-layer="89" from-port="1" to-layer="90" to-port="1"/>
		<edge from-layer="90" from-port="2" to-layer="91" to-port="0"/>
		<edge from-layer="91" from-port="2" to-layer="92" to-port="0"/>
		<edge from-layer="92" from-port="1" to-layer="95" to-port="0"/>
		<edge from-layer="92" from-port="1" to-layer="106" to-port="1"/>
		<edge from-layer="93" from-port="0" to-layer="94" to-port="0"/>
		<edge from-layer="94" from-port="1" to-layer="95" to-port="1"/>
		<edge from-layer="95" from-port="2" to-layer="98" to-port="0"/>
		<edge from-layer="96" from-port="0" to-layer="97" to-port="0"/>
		<edge from-layer="97" from-port="1" to-layer="98" to-port="1"/>
		<edge from-layer="98" from-port="2" to-layer="99" to-port="0"/>
		<edge from-layer="99" from-port="1" to-layer="102" to-port="0"/>
		<edge from-layer="100" from-port="0" to-layer="101" to-port="0"/>
		<edge from-layer="101" from-port="1" to-layer="102" to-port="1"/>
		<edge from-layer="102" from-port="2" to-layer="105" to-port="0"/>
		<edge from-layer="103" from-port="0" to-layer="104" to-port="0"/>
		<edge from-layer="104" from-port="1" to-layer="105" to-port="1"/>
		<edge from-layer="105" from-port="2" to-layer="106" to-port="0"/>
		<edge from-layer="106" from-port="2" to-layer="107" to-port="0"/>
		<edge from-layer="107" from-port="1" to-layer="110" to-port="0"/>
		<edge from-layer="107" from-port="1" to-layer="121" to-port="1"/>
		<edge from-layer="108" from-port="0" to-layer="109" to-port="0"/>
		<edge from-layer="109" from-port="1" to-layer="110" to-port="1"/>
		<edge from-layer="110" from-port="2" to-layer="113" to-port="0"/>
		<edge from-layer="111" from-port="0" to-layer="112" to-port="0"/>
		<edge from-layer="112" from-port="1" to-layer="113" to-port="1"/>
		<edge from-layer="113" from-port="2" to-layer="114" to-port="0"/>
		<edge from-layer="114" from-port="1" to-layer="117" to-port="0"/>
		<edge from-layer="115" from-port="0" to-layer="116" to-port="0"/>
		<edge from-layer="116" from-port="1" to-layer="117" to-port="1"/>
		<edge from-layer="117" from-port="2" to-layer="120" to-port="0"/>
		<edge from-layer="118" from-port="0" to-layer="119" to-port="0"/>
		<edge from-layer="119" from-port="1" to-layer="120" to-port="1"/>
		<edge from-layer="120" from-port="2" to-layer="121" to-port="0"/>
		<edge from-layer="121" from-port="2" to-layer="122" to-port="0"/>
		<edge from-layer="122" from-port="1" to-layer="138" to-port="0"/>
		<edge from-layer="122" from-port="1" to-layer="125" to-port="0"/>
		<edge from-layer="123" from-port="0" to-layer="124" to-port="0"/>
		<edge from-layer="124" from-port="1" to-layer="125" to-port="1"/>
		<edge from-layer="125" from-port="2" to-layer="128" to-port="0"/>
		<edge from-layer="126" from-port="0" to-layer="127" to-port="0"/>
		<edge from-layer="127" from-port="1" to-layer="128" to-port="1"/>
		<edge from-layer="128" from-port="2" to-layer="129" to-port="0"/>
		<edge from-layer="129" from-port="1" to-layer="132" to-port="0"/>
		<edge from-layer="130" from-port="0" to-layer="131" to-port="0"/>
		<edge from-layer="131" from-port="1" to-layer="132" to-port="1"/>
		<edge from-layer="132" from-port="2" to-layer="135" to-port="0"/>
		<edge from-layer="133" from-port="0" to-layer="134" to-port="0"/>
		<edge from-layer="134" from-port="1" to-layer="135" to-port="1"/>
		<edge from-layer="135" from-port="2" to-layer="142" to-port="0"/>
		<edge from-layer="136" from-port="0" to-layer="137" to-port="0"/>
		<edge from-layer="137" from-port="1" to-layer="138" to-port="1"/>
		<edge from-layer="138" from-port="2" to-layer="141" to-port="0"/>
		<edge from-layer="139" from-port="0" to-layer="140" to-port="0"/>
		<edge from-layer="140" from-port="1" to-layer="141" to-port="1"/>
		<edge from-layer="141" from-port="2" to-layer="142" to-port="1"/>
		<edge from-layer="142" from-port="2" to-layer="143" to-port="0"/>
		<edge from-layer="143" from-port="1" to-layer="146" to-port="0"/>
		<edge from-layer="143" from-port="1" to-layer="157" to-port="1"/>
		<edge from-layer="144" from-port="0" to-layer="145" to-port="0"/>
		<edge from-layer="145" from-port="1" to-layer="146" to-port="1"/>
		<edge from-layer="146" from-port="2" to-layer="149" to-port="0"/>
		<edge from-layer="147" from-port="0" to-layer="148" to-port="0"/>
		<edge from-layer="148" from-port="1" to-layer="149" to-port="1"/>
		<edge from-layer="149" from-port="2" to-layer="150" to-port="0"/>
		<edge from-layer="150" from-port="1" to-layer="153" to-port="0"/>
		<edge from-layer="151" from-port="0" to-layer="152" to-port="0"/>
		<edge from-layer="152" from-port="1" to-layer="153" to-port="1"/>
		<edge from-layer="153" from-port="2" to-layer="156" to-port="0"/>
		<edge from-layer="154" from-port="0" to-layer="155" to-port="0"/>
		<edge from-layer="155" from-port="1" to-layer="156" to-port="1"/>
		<edge from-layer="156" from-port="2" to-layer="157" to-port="0"/>
		<edge from-layer="157" from-port="2" to-layer="158" to-port="0"/>
		<edge from-layer="158" from-port="1" to-layer="172" to-port="1"/>
		<edge from-layer="158" from-port="1" to-layer="161" to-port="0"/>
		<edge from-layer="159" from-port="0" to-layer="160" to-port="0"/>
		<edge from-layer="160" from-port="1" to-layer="161" to-port="1"/>
		<edge from-layer="161" from-port="2" to-layer="164" to-port="0"/>
		<edge from-layer="162" from-port="0" to-layer="163" to-port="0"/>
		<edge from-layer="163" from-port="1" to-layer="164" to-port="1"/>
		<edge from-layer="164" from-port="2" to-layer="165" to-port="0"/>
		<edge from-layer="165" from-port="1" to-layer="168" to-port="0"/>
		<edge from-layer="166" from-port="0" to-layer="167" to-port="0"/>
		<edge from-layer="167" from-port="1" to-layer="168" to-port="1"/>
		<edge from-layer="168" from-port="2" to-layer="171" to-port="0"/>
		<edge from-layer="169" from-port="0" to-layer="170" to-port="0"/>
		<edge from-layer="170" from-port="1" to-layer="171" to-port="1"/>
		<edge from-layer="171" from-port="2" to-layer="172" to-port="0"/>
		<edge from-layer="172" from-port="2" to-layer="173" to-port="0"/>
		<edge from-layer="173" from-port="1" to-layer="176" to-port="0"/>
		<edge from-layer="173" from-port="1" to-layer="187" to-port="1"/>
		<edge from-layer="174" from-port="0" to-layer="175" to-port="0"/>
		<edge from-layer="175" from-port="1" to-layer="176" to-port="1"/>
		<edge from-layer="176" from-port="2" to-layer="179" to-port="0"/>
		<edge from-layer="177" from-port="0" to-layer="178" to-port="0"/>
		<edge from-layer="178" from-port="1" to-layer="179" to-port="1"/>
		<edge from-layer="179" from-port="2" to-layer="180" to-port="0"/>
		<edge from-layer="180" from-port="1" to-layer="183" to-port="0"/>
		<edge from-layer="181" from-port="0" to-layer="182" to-port="0"/>
		<edge from-layer="182" from-port="1" to-layer="183" to-port="1"/>
		<edge from-layer="183" from-port="2" to-layer="186" to-port="0"/>
		<edge from-layer="184" from-port="0" to-layer="185" to-port="0"/>
		<edge from-layer="185" from-port="1" to-layer="186" to-port="1"/>
		<edge from-layer="186" from-port="2" to-layer="187" to-port="0"/>
		<edge from-layer="187" from-port="2" to-layer="188" to-port="0"/>
		<edge from-layer="188" from-port="1" to-layer="191" to-port="0"/>
		<edge from-layer="188" from-port="1" to-layer="202" to-port="1"/>
		<edge from-layer="189" from-port="0" to-layer="190" to-port="0"/>
		<edge from-layer="190" from-port="1" to-layer="191" to-port="1"/>
		<edge from-layer="191" from-port="2" to-layer="194" to-port="0"/>
		<edge from-layer="192" from-port="0" to-layer="193" to-port="0"/>
		<edge from-layer="193" from-port="1" to-layer="194" to-port="1"/>
		<edge from-layer="194" from-port="2" to-layer="195" to-port="0"/>
		<edge from-layer="195" from-port="1" to-layer="198" to-port="0"/>
		<edge from-layer="196" from-port="0" to-layer="197" to-port="0"/>
		<edge from-layer="197" from-port="1" to-layer="198" to-port="1"/>
		<edge from-layer="198" from-port="2" to-layer="201" to-port="0"/>
		<edge from-layer="199" from-port="0" to-layer="200" to-port="0"/>
		<edge from-layer="200" from-port="1" to-layer="201" to-port="1"/>
		<edge from-layer="201" from-port="2" to-layer="202" to-port="0"/>
		<edge from-layer="202" from-port="2" to-layer="203" to-port="0"/>
		<edge from-layer="203" from-port="1" to-layer="206" to-port="0"/>
		<edge from-layer="203" from-port="1" to-layer="217" to-port="1"/>
		<edge from-layer="204" from-port="0" to-layer="205" to-port="0"/>
		<edge from-layer="205" from-port="1" to-layer="206" to-port="1"/>
		<edge from-layer="206" from-port="2" to-layer="209" to-port="0"/>
		<edge from-layer="207" from-port="0" to-layer="208" to-port="0"/>
		<edge from-layer="208" from-port="1" to-layer="209" to-port="1"/>
		<edge from-layer="209" from-port="2" to-layer="210" to-port="0"/>
		<edge from-layer="210" from-port="1" to-layer="213" to-port="0"/>
		<edge from-layer="211" from-port="0" to-layer="212" to-port="0"/>
		<edge from-layer="212" from-port="1" to-layer="213" to-port="1"/>
		<edge from-layer="213" from-port="2" to-layer="216" to-port="0"/>
		<edge from-layer="214" from-port="0" to-layer="215" to-port="0"/>
		<edge from-layer="215" from-port="1" to-layer="216" to-port="1"/>
		<edge from-layer="216" from-port="2" to-layer="217" to-port="0"/>
		<edge from-layer="217" from-port="2" to-layer="218" to-port="0"/>
		<edge from-layer="218" from-port="1" to-layer="221" to-port="0"/>
		<edge from-layer="218" from-port="1" to-layer="234" to-port="0"/>
		<edge from-layer="219" from-port="0" to-layer="220" to-port="0"/>
		<edge from-layer="220" from-port="1" to-layer="221" to-port="1"/>
		<edge from-layer="221" from-port="2" to-layer="224" to-port="0"/>
		<edge from-layer="222" from-port="0" to-layer="223" to-port="0"/>
		<edge from-layer="223" from-port="1" to-layer="224" to-port="1"/>
		<edge from-layer="224" from-port="2" to-layer="225" to-port="0"/>
		<edge from-layer="225" from-port="1" to-layer="228" to-port="0"/>
		<edge from-layer="226" from-port="0" to-layer="227" to-port="0"/>
		<edge from-layer="227" from-port="1" to-layer="228" to-port="1"/>
		<edge from-layer="228" from-port="2" to-layer="231" to-port="0"/>
		<edge from-layer="229" from-port="0" to-layer="230" to-port="0"/>
		<edge from-layer="230" from-port="1" to-layer="231" to-port="1"/>
		<edge from-layer="231" from-port="2" to-layer="238" to-port="0"/>
		<edge from-layer="232" from-port="0" to-layer="233" to-port="0"/>
		<edge from-layer="233" from-port="1" to-layer="234" to-port="1"/>
		<edge from-layer="234" from-port="2" to-layer="237" to-port="0"/>
		<edge from-layer="235" from-port="0" to-layer="236" to-port="0"/>
		<edge from-layer="236" from-port="1" to-layer="237" to-port="1"/>
		<edge from-layer="237" from-port="2" to-layer="238" to-port="1"/>
		<edge from-layer="238" from-port="2" to-layer="239" to-port="0"/>
		<edge from-layer="239" from-port="1" to-layer="242" to-port="0"/>
		<edge from-layer="239" from-port="1" to-layer="253" to-port="1"/>
		<edge from-layer="240" from-port="0" to-layer="241" to-port="0"/>
		<edge from-layer="241" from-port="1" to-layer="242" to-port="1"/>
		<edge from-layer="242" from-port="2" to-layer="245" to-port="0"/>
		<edge from-layer="243" from-port="0" to-layer="244" to-port="0"/>
		<edge from-layer="244" from-port="1" to-layer="245" to-port="1"/>
		<edge from-layer="245" from-port="2" to-layer="246" to-port="0"/>
		<edge from-layer="246" from-port="1" to-layer="249" to-port="0"/>
		<edge from-layer="247" from-port="0" to-layer="248" to-port="0"/>
		<edge from-layer="248" from-port="1" to-layer="249" to-port="1"/>
		<edge from-layer="249" from-port="2" to-layer="252" to-port="0"/>
		<edge from-layer="250" from-port="0" to-layer="251" to-port="0"/>
		<edge from-layer="251" from-port="1" to-layer="252" to-port="1"/>
		<edge from-layer="252" from-port="2" to-layer="253" to-port="0"/>
		<edge from-layer="253" from-port="2" to-layer="254" to-port="0"/>
		<edge from-layer="254" from-port="1" to-layer="257" to-port="0"/>
		<edge from-layer="254" from-port="1" to-layer="268" to-port="1"/>
		<edge from-layer="255" from-port="0" to-layer="256" to-port="0"/>
		<edge from-layer="256" from-port="1" to-layer="257" to-port="1"/>
		<edge from-layer="257" from-port="2" to-layer="260" to-port="0"/>
		<edge from-layer="258" from-port="0" to-layer="259" to-port="0"/>
		<edge from-layer="259" from-port="1" to-layer="260" to-port="1"/>
		<edge from-layer="260" from-port="2" to-layer="261" to-port="0"/>
		<edge from-layer="261" from-port="1" to-layer="264" to-port="0"/>
		<edge from-layer="262" from-port="0" to-layer="263" to-port="0"/>
		<edge from-layer="263" from-port="1" to-layer="264" to-port="1"/>
		<edge from-layer="264" from-port="2" to-layer="267" to-port="0"/>
		<edge from-layer="265" from-port="0" to-layer="266" to-port="0"/>
		<edge from-layer="266" from-port="1" to-layer="267" to-port="1"/>
		<edge from-layer="267" from-port="2" to-layer="268" to-port="0"/>
		<edge from-layer="268" from-port="2" to-layer="269" to-port="0"/>
		<edge from-layer="269" from-port="1" to-layer="271" to-port="0"/>
		<edge from-layer="269" from-port="1" to-layer="273" to-port="0"/>
		<edge from-layer="270" from-port="0" to-layer="271" to-port="1"/>
		<edge from-layer="271" from-port="2" to-layer="274" to-port="0"/>
		<edge from-layer="272" from-port="0" to-layer="273" to-port="1"/>
		<edge from-layer="273" from-port="2" to-layer="274" to-port="1"/>
		<edge from-layer="274" from-port="2" to-layer="276" to-port="0"/>
		<edge from-layer="275" from-port="0" to-layer="276" to-port="1"/>
		<edge from-layer="276" from-port="2" to-layer="279" to-port="0"/>
		<edge from-layer="277" from-port="0" to-layer="278" to-port="0"/>
		<edge from-layer="278" from-port="1" to-layer="279" to-port="1"/>
		<edge from-layer="279" from-port="2" to-layer="282" to-port="0"/>
		<edge from-layer="280" from-port="0" to-layer="281" to-port="0"/>
		<edge from-layer="281" from-port="1" to-layer="282" to-port="1"/>
		<edge from-layer="282" from-port="2" to-layer="285" to-port="0"/>
		<edge from-layer="283" from-port="0" to-layer="284" to-port="0"/>
		<edge from-layer="284" from-port="1" to-layer="285" to-port="1"/>
		<edge from-layer="285" from-port="2" to-layer="286" to-port="0"/>
		<edge from-layer="286" from-port="1" to-layer="289" to-port="0"/>
		<edge from-layer="287" from-port="0" to-layer="288" to-port="0"/>
		<edge from-layer="288" from-port="1" to-layer="289" to-port="1"/>
		<edge from-layer="289" from-port="2" to-layer="292" to-port="0"/>
		<edge from-layer="290" from-port="0" to-layer="291" to-port="0"/>
		<edge from-layer="291" from-port="1" to-layer="292" to-port="1"/>
		<edge from-layer="292" from-port="2" to-layer="295" to-port="0"/>
		<edge from-layer="293" from-port="0" to-layer="294" to-port="0"/>
		<edge from-layer="294" from-port="1" to-layer="295" to-port="1"/>
		<edge from-layer="295" from-port="2" to-layer="296" to-port="0"/>
	</edges>
	<meta_data>
		<MO_version value="2022.1.0-7019-cdb9bec7210-releases/2022/1"/>
		<Runtime_version value="2022.1.0-7019-cdb9bec7210-releases/2022/1"/>
		<legacy_path value="False"/>
		<cli_parameters>
			<caffe_parser_path value="DIR"/>
			<compress_fp16 value="True"/>
			<data_type value="FP32"/>
			<disable_nhwc_to_nchw value="False"/>
			<disable_omitting_optional value="False"/>
			<disable_resnet_optimization value="False"/>
			<disable_weights_compression value="False"/>
			<enable_concat_optimization value="False"/>
			<enable_flattening_nested_params value="False"/>
			<enable_ssd_gluoncv value="False"/>
			<extensions value="DIR"/>
			<framework value="onnx"/>
			<freeze_placeholder_with_value value="{}"/>
			<input_model value="DIR/asl-and-some-words-resnet34.onnx"/>
			<input_model_is_text value="False"/>
			<input_shape value="[1,3, 216, 384]"/>
			<k value="DIR/CustomLayersMapping.xml"/>
			<layout value="()"/>
			<layout_values value="{}"/>
			<legacy_mxnet_model value="False"/>
			<log_level value="ERROR"/>
			<mean_scale_values value="[(array([0.485, 0.456, 0.406]), array([0.229, 0.224, 0.225]))]"/>
			<mean_values value="[0.485, 0.456, 0.406]"/>
			<model_name value="asl-and-some-words-resnet34"/>
			<output_dir value="DIR"/>
			<placeholder_data_types value="{}"/>
			<placeholder_shapes value="(1, 3, 216, 384)"/>
			<progress value="False"/>
			<remove_memory value="False"/>
			<remove_output_softmax value="False"/>
			<reverse_input_channels value="False"/>
			<save_params_from_nd value="False"/>
			<scale_values value="[0.229, 0.224, 0.225]"/>
			<silent value="False"/>
			<source_layout value="()"/>
			<static_shape value="False"/>
			<stream_output value="False"/>
			<target_layout value="()"/>
			<transform value=""/>
			<use_legacy_frontend value="False"/>
			<use_new_frontend value="False"/>
			<unset unset_cli_parameters="batch, counts, disable_fusing, finegrain_fusing, input, input_checkpoint, input_meta_graph, input_proto, input_symbol, mean_file, mean_file_offsets, nd_prefix_name, output, pretrained_model_name, saved_model_dir, saved_model_tags, scale, tensorboard_logdir, tensorflow_custom_layer_libraries, tensorflow_custom_operations_config_update, tensorflow_object_detection_api_pipeline_config, tensorflow_use_custom_operations_config, transformations_config"/>
		</cli_parameters>
	</meta_data>
</net>
